ddqn_target_model.pth (torch, 29671 bytes, 6 tensors)

fc1.weight f4 [64, 37]
0.17527373 0.11896916 -0.49224612 -0.1024835 0.21923575 -0.53333575 -0.46157786 0.49255028
0.27161548 -0.058384642 -0.47871467 0.49002084 0.36881366 -0.5485288 -0.48636013 0.14692514
0.051678967 -0.3052457 0.12291859 -0.73512495 -0.17092988 -0.5089583 -0.15275559 0.12506886
0.65794563 -0.015604497 -0.46478072 0.77576745 -0.39279494 0.66310394 0.43938497 -1.3709426
-0.34995574 0.041334487 -1.3981116 -0.10568924 0.034657232 -0.84110236 -0.20882547 0.4619364
-0.6756894 -0.48925036 -0.6151306 -0.38376686 0.5355389 0.12702955 -1.901298 -1.6019955
0.313966 -0.45622334 0.12229657 0.74768555 -0.9975752 0.1678809 0.14591172 -0.4876218
0.31889045 0.10025519 -1.0085822 0.31314006 -0.6644115 -0.2289945 -0.43766537 -0.7514069
0.18168584 -0.6184076 -1.0623171 0.23717551 -0.24049005 -0.5813049 0.024911657 -0.31939977
0.117316164 0.014775932 -1.0287682 -0.1217552 -0.6048577 -1.5014545 -0.96985435 -1.3057177
0.34578627 -0.6093645 -0.47461608 0.23049998 -0.9581396 -1.2805833 0.05860052 -0.18128614
-1.016531 -0.02904402 -0.15699486 -0.7810303 -0.018582594 -0.050300803 -0.18262807 -0.6372263
0.3253846 -1.2323511 1.0360612 -1.193155 -0.17517549 -0.6032357 0.60355175 -1.026972
-0.4836627 -0.35846135 -0.25700518 0.4935107 1.0673984 0.08355311 0.0242653 0.044425596
0.39409298 -0.22148706 -0.07785355 -0.22142412 -1.3298196 0.9900578 0.5961791 -0.40019175
-0.018451791 0.025189983 0.353174 -0.37534577 -0.33835176 -0.57295066 0.40053952 0.036341343
0.01856132 -0.71462977 -0.44757175 0.24095815 -0.16586135 0.45864326 -0.675106 -0.55965054
0.23322459 0.14343736 -0.05007322 -0.0892711 -0.10711923 0.40957576 0.05327539 -0.057004802
0.101281926 -0.09561729 0.08020579 -0.018719992 -0.034348328 -0.7952757 -0.27826157 0.10420317
-0.71955395 -0.40433148 0.35307142 0.28876987 -0.9080121 -0.29143423 -0.69329214 -0.5675024
0.0416648 -0.06049244 -0.20640662 0.10382319 -0.15535817 -0.21955542 -0.372586 -2.6246336
0.19841659 -0.118411444 -0.16214715 -0.57364166 0.22035411 -0.049651835 -0.31794044 -0.4536961
0.009577078 -0.471959 0.041038208 -0.40827733 -0.33924314 -0.1759069 -1.2753142 0.19245315
-0.01539785 -0.5941695 -0.16145386 -0.18695597 0.45764914 -1.784384 -0.12427666 0.38714287
-0.089328125 -1.7079489 -0.34858474 0.35533965 -0.9620974 -0.4615664 -0.25703397 -0.023400018
-0.7490225 0.33575764 0.14856216 -0.290282 -1.1396773 0.4701727 -1.278819 -0.39990914
-0.35441253 -0.1051805 -0.5169575 0.14688279 0.14580742 -1.6275065 -2.1939201 -1.4573708
-0.24730211 -0.06328746 -0.11431075 0.3776776 0.2179506 -0.054509513 -0.3017637 -0.009411303
-0.8765885 -0.63250726 -0.81207234 -0.9824822 -0.029327564 0.124571584 -0.69558096 -0.12801154
-0.51108056 -0.4868065 0.17899738 -0.8575865 -2.3714805 -0.25173154 -0.08588814 -0.66363275
-0.2745184 -0.45507893 0.26902878 -0.6887264 -0.32849047 -1.3447179 -2.5549676 -0.23954087
-1.098765 -0.22706561 -0.9698817 -1.5588895 -0.71322393 -1.0389935 0.14774068 -0.70720387
00000000: f57a 333e 1aa6 f33d af07 fcbe dfe2 d1bd
00000010: 567f 603e b188 08bf ef53 ecbe 8d2f fc3e
00000020: 2f11 8b3e bc24 6fbd 171a f5be 03e4 fa3e
00000030: 25d5 bc3e 626c 0cbf 3204 f9be 8b73 163e
00000040: 53ad 533d 2a49 9cbe bebc fb3d 2631 3cbf
00000050: 3e08 2fbe 174b 02bf f66b 1cbe 0d12 003e
00000060: 206f 283f 01aa 7fbc bdf7 edbe b298 463f
00000070: 6b1c c9be 2ec1 293f 11f7 e03e 0c7b afbf
00000080: 662d b3be 5a4e 293d 52f5 b2bf 9a73 d8bd
00000090: bef4 0d3d 7c52 57bf 58d6 55be ee82 ec3e
000000a0: fbf9 2cbf 067f fabe 3379 1dbf 177d c4be
000000b0: 1419 093f 0914 023e bc5d f3bf 300e cdbf
000000c0: 27c0 a03e 1b96 e9be a076 fa3d 5268 3f3f
000000d0: 1761 7fbf f8e8 2b3e e269 153e 91a9 f9be
000000e0: 9c45 a33e 9852 cd3d 3919 81bf e553 a03e
000000f0: df16 2abf 897d 6abe ad15 e0be 345c 40bf
00000100: da0b 3a3e f64f 1ebf 02fa 87bf 23de 723e
00000110: 0643 76be 66d0 14bf 8813 cc3c 5e88 a3be
00000120: 7543 f03d c016 723c adae 83bf ca5a f9bd
00000130: f4d7 1abf a92f c0bf 6048 78bf c221 a7bf
00000140: e60a b13e 50ff 1bbf e100 f3be 3008 6c3e
00000150: a348 75bf 27ea a3bf 1907 703d 13a3 39be
00000160: b01d 82bf baed edbc 43c3 20be 9af1 47bf
00000170: 863a 98bc 3708 4ebd da02 3bbe 4321 23bf
00000180: cf98 a63e aebd 9dbf a79d 843f 4eb9 98bf
00000190: 3461 33be a86d 1abf 5e82 1a3f d273 83bf
000001a0: a3a2 f7be 3f88 b7be 2f96 83be 6fad fc3e
000001b0: 83a0 883f e51d ab3d 06c8 c63c 9df7 353d
000001c0: 8ec6 c93e 81cd 62be af71 9fbd 01bd 62be
000001d0: 8737 aabf 6e74 7d3f 329f 183f efe5 ccbe
000001e0: 3628 97bc 395b ce3c 39d3 b43e 522d c0be
000001f0: 713c adbe e5ac 12bf 8413 cd3e a9da 143d
00000200: e90d 983c faf1 36bf 2028 e5be bcbd 763e
00000210: 8fd7 29be 4ad3 ea3e bfd3 2cbf 4245 0fbf
00000220: 6dd2 6e3e 3ee1 123e 9419 4dbd c4d3 b6bd
00000230: 5461 dbbd eab3 d13e 4c37 5a3d de7d 69bd
00000240: e66c cf3d ffd2 c3bd ef42 a43d ab5a 99bc
00000250: d5b0 0cbd 3097 4bbf 4d78 8ebe 7968 d53d
00000260: b034 38bf 8904 cfbe c7c5 b43e a5d9 933e
00000270: 7b73 68bf de36 95be 987b 31bf d647 11bf
00000280: b6a8 2a3d ecc6 77bd 425c 53be 41a1 d43d
00000290: 3616 1fbe 23d3 60be 98c3 bebe fff9 27c0
000002a0: b82d 4b3e b381 f2bd e709 26be 2eda 12bf
000002b0: 82a4 613e b95f 4bbd 17c9 a2be db4a e8be
000002c0: 2de9 1c3c 9ca4 f1be ae17 283d ba09 d1be
000002d0: 47b1 adbe f020 34be 7f3d a3bf 7012 453e
000002e0: 4447 7cbc 7e1b 18bf 2954 25be 6371 3fbe
000002f0: fd50 ea3e b266 e4bf c384 febd 9737 c63e
00000300: aaf1 b6bd 129e dabf b379 b2be 14ef b53e
00000310: 044c 76bf 6e52 ecbe f599 83be 65b1 bfbc
00000320: f0bf 3fbf 6de8 ab3e ae20 183e d89f 94be
00000330: f2e0 91bf 7aba f03e 57b0 a3bf e4c0 ccbe
00000340: 8f75 b5be e068 d7bd 5457 04bf 7168 163e
00000350: 8a4e 153e 2252 d0bf 3069 0cc0 208b babf
00000360: c43c 7dbe db9c 81bd c11b eabd f55e c13e
00000370: 712e 5f3e 5e45 5fbd c680 9abe de31 1abc
00000380: 1b68 60bf ffeb 21bf f9e3 4fbf f483 7bbf
00000390: 5c40 f0bc 631f ff3d 9811 32bf 7515 03be
000003a0: 2dd6 02bf b43e f9be 174b 373e ca8a 5bbf
000003b0: 56c6 17c0 f5e2 80be 1fe6 afbd d6e3 29bf
000003c0: ad8d 8cbe 1b00 e9be 24be 893e 6050 30bf
000003d0: e72f a8be b71f acbf 9784 23c0 344a 75be
000003e0: 55a4 8cbf e383 68be 2b4a 78bf b189 c7bf
000003f0: d895 36bf bdfd 84bf 5549 173e 500b 35bf

fc1.bias f4 [64]
0.02821464 -0.2597399 -0.30319914 -0.12161192 -0.491408 -0.2584494 -0.2578291 0.015598636
-0.2491049 0.3249657 -0.013192619 -0.30171928 0.12858097 -0.020161863 0.15070531 -0.29453978
-0.08310288 0.13503537 -0.28100935 -0.34303477 -0.14220396 0.09977758 -0.18728824 -0.38550997
-0.20502332 0.11077749 -0.532657 -0.12625086 0.0039938847 -0.031637385 -0.12077474 -0.11256862
0.09233851 -0.14673942 -0.053409755 0.15174988 -0.29265603 -0.5107949 -0.026604936 -0.5696362
-0.29769018 0.13000953 0.082494676 -0.09957546 -0.0066872584 -0.2458784 -0.021822922 -0.10679519
0.0300503 -0.052762903 -0.13901317 0.004914109 0.13072583 0.1369083 0.08020714 -0.16855451
-0.26862824 -0.19214375 0.030969255 -0.017208932 -0.17038153 -0.0007936483 -0.27416673 -0.25601098
00000000: 6422 e73c a1fc 84be eb3c 9bbe ac0f f9bd
00000010: d499 fbbe 7b53 84be 2d02 84be 6c91 7f3c
00000020: 5b15 7fbe e761 a63e db25 58bc f37a 9abe
00000030: bbaa 033e 7e2a a5bc 7e52 1a3e ebcd 96be
00000040: d831 aabd b646 0a3e 75e0 8fbe 41a2 afbe
00000050: ea9d 11be 3058 cc3d 7dc8 3fbe 9061 c5be
00000060: a2f1 51be 4fdf e23d 365c 08bf e847 01be
00000070: 22df 823b 3496 01bd bf58 f7bd 608a e6bd
00000080: f91b bd3d dc42 16be 30c4 5abd 5264 1b3e
00000090: 03d7 95be 74c3 02bf 98f2 d9bc aed3 11bf
000000a0: d96a 98be 3821 053e f8f2 a83d 38ee cbbd
000000b0: ca20 dbbb 8cc7 7bbe fcc5 b2bc 70b7 dabd
000000c0: 0c2c f63c ea1d 58bd 7859 0ebe 8906 a13b
000000d0: fedc 053e b031 0c3e a443 a43d 8e99 2cbe
000000e0: a489 89be 55c1 44be 3cb3 fd3c bff9 8cbc
000000f0: 7f78 2ebe d60c 50ba 955f 8cbe df13 83be

fc2.weight f4 [64, 64]
0.13240552 -0.2673539 -0.23346715 -0.38183072 -0.3402743 -0.44904098 -0.15085205 -0.08611911
-0.6447697 -0.25266734 0.22649977 -0.37166214 -0.3928152 -0.16281174 -0.5718576 -0.804121
-0.17533427 0.15019043 0.2500581 -0.33355772 -1.1735809 -0.22949143 -0.25145736 -0.20365585
0.1777278 0.039534703 -0.39798954 0.20888914 -0.17156427 -0.5991834 0.2332698 0.008999865
-0.26240262 0.16111003 -0.058974247 -0.8974501 0.2704414 -0.18946397 -0.30544132 0.23885243
0.09139263 -0.017684158 0.15589371 0.27035442 -0.1663549 -0.017439403 0.09037935 0.09187841
-0.12661083 -0.25084493 -0.092264354 -0.55947953 -0.47048676 -0.108512595 -0.046007752 -1.0537754
-0.49792874 -0.4477416 -0.8976647 -0.66827005 -0.28460354 -0.5563024 0.24953656 0.059190825
-0.036114555 -0.8877246 -0.2387603 -0.12191661 -0.47178614 -0.8426138 -0.27517998 0.4199066
-0.028011762 -0.2822678 -0.2993621 0.27190292 0.06381221 -0.112493195 0.026364505 -0.8968313
-0.08792103 -0.37870604 0.22091141 0.5929303 0.1085301 0.09413004 0.012999937 -0.50158143
-0.087770306 -0.016569786 0.08921244 0.123037845 -0.006106115 0.20416805 0.25451437 0.065469116
0.07705704 -0.6700119 0.029177472 -0.023199797 -0.22027133 0.35792685 0.681228 0.7226653
0.49483827 0.084701784 -0.05178424 0.045951027 -0.12659538 0.19819605 0.085802756 0.47439754
0.5952697 0.08886064 0.10316298 -0.13573566 0.05880908 -0.32283825 0.03626847 -0.6352309
-0.07769152 -0.19652154 0.3332578 -0.099533014 -0.754375 -0.15497765 -0.10403091 -0.34220564
-0.068626896 0.07658402 -0.28152525 -0.45833167 0.5145972 -0.12240459 -0.77430683 0.6920095
-0.09664903 0.3148952 0.12045569 -0.06643615 -0.18629716 0.4119726 0.005814133 -0.19943517
0.13473387 -0.09107779 -0.23446552 -0.027170997 -0.065760426 0.044323098 0.57526636 -0.0047681844
0.47378856 -0.20671548 -0.033632327 -0.0573175 0.02721345 0.030354416 0.07291095 -0.04767104
-0.03896057 0.03221031 -2.3693182 -0.17527287 0.36785206 0.054391082 0.21173546 -0.34643146
0.44865876 -1.3889465 0.07443774 -0.016055793 -0.01222707 0.0626627 -0.100963235 0.55518526
-0.9073019 0.017462153 -0.3210997 0.61877507 -0.1463362 -0.43626022 -0.061004862 -0.1372972
0.20813939 0.12525715 0.04432316 0.052271355 -0.029438576 -0.43863454 0.2527316 0.08150757
-0.7832452 -0.073962726 0.2626753 -0.021982461 -0.26713336 0.32087296 0.2555641 -0.49363542
-0.39505044 -1.1447126 0.15629993 0.18861163 -0.095653534 0.78768206 -0.080026634 -0.631598
-0.6730503 0.4453342 -0.23728484 -0.18806714 -1.359053 -0.092867635 0.36205384 -0.8107805
-0.2705471 0.20385315 -0.5073254 -0.51512176 0.533789 -0.44784924 -0.16577631 0.39737108
-0.46783936 -0.3727708 -0.73381484 -0.05037563 -0.40119627 -0.2510595 -0.48550117 0.06676546
-0.6410903 -0.29312104 0.15227063 -0.028244788 0.027396217 -0.28502673 -0.2233704 -0.27932253
-0.35263234 -0.077692024 -0.36162862 -0.25654915 -0.39160496 -0.07349932 -0.12871888 0.18178093
-0.7419323 0.19020605 -0.75892884 -0.61506903 0.14510913 -0.8800479 0.054666076 -0.31644434
00000000: 5095 073e 9ce2 88be 0312 6fbe 517f c3be
00000010: 6f38 aebe b3e8 e5be f678 1abe 375f b0bd
00000020: a10f 25bf 9d5d 81be 8eef 673e 804a bebe
00000030: 131f c9be 1fb8 26be 4265 12bf e0da 4dbf
00000040: d48a 33be 85cb 193e 9e07 803e 14c8 aabe
00000050: e637 96bf cdff 6abe 05bf 80be 298b 50be
00000060: 47fe 353e 24ef 213d 49c5 cbbe 09e7 553e
00000070: 8bae 2fbe 1564 19bf 47de 6e3e 2b74 133c
00000080: a359 86be 07fa 243e fb8e 71bd 4abf 65bf
00000090: 4c77 8a3e d802 42be ce62 9cbe bb95 743e
000000a0: 0f2c bb3d 5ede 90bc 9aa2 1f3e e56b 8a3e
000000b0: f058 2abe 14dd 8ebc cf18 b93d bf2a bc3d
000000c0: 45a6 01be bf6e 80be 18f5 bcbd 0d3a 0fbf
000000d0: a4e3 f0be da3b debd a072 3cbd 1de2 86bf
000000e0: 84f0 febe 633e e5be 5bcd 65bf bf13 2bbf
000000f0: 8eb7 91be d669 0ebf 8386 7f3e 1472 723d
00000100: dbec 13bd eb41 63bf 957d 74be 6aaf f9bd
00000110: f48d f1be 8ab5 57bf 64e4 8cbe fffd d63e
00000120: ec78 e5bc 6885 90be fd45 99be dc36 8b3e
00000130: faaf 823d d562 e6bd 60fa d73c bc96 65bf
00000140: f10f b4bd c2e5 c1be 9a36 623e 48ca 173f
00000150: 0745 de3d 40c7 c03d b0fd 543c a467 00bf
00000160: ebc0 b3bd 5cbd 87bc 03b5 b63d 44fb fb3d
00000170: ce15 c8bb 6e11 513e b54f 823e ac14 863d
00000180: 15d0 9d3d e685 2bbf 9805 ef3c 800d bebc
00000190: cf8e 61be 3042 b73e f564 2e3f 9800 393f
000001a0: 715b fd3e 2178 ad3d b61b 54bd 2537 3c3d
000001b0: 38a2 01be e8f3 4a3e 5bb9 af3d 3ce4 f23e
000001c0: 9863 183f 91fc b53d 1d47 d33d 4afe 0abe
000001d0: cae1 703d 0e4b a5be 3f8e 143d 7e9e 22bf
000001e0: bb1c 9fbd f13c 49be c4a0 aa3e f7d7 cbbd
000001f0: b81e 41bf 76b2 1ebe 280e d5bd 9435 afbe
00000200: 428c 8cbd 15d8 9c3d 1424 90be 73aa eabe
00000210: a4bc 033f 42af fabd f938 46bf 8927 313f
00000220: edef c5bd f239 a13e 79b1 f63d ad0f 88bd
00000230: afc4 3ebe 13ee d23e 7c84 be3b bc38 4cbe
00000240: adf7 093e fe86 babd bb17 70be b695 debc
00000250: 67ad 86bd 238c 353d a844 133f 6e3e 9cbb
00000260: 6a94 f23e 39ad 53be 0dc2 09bd c1c5 6abd
00000270: beee de3c d3a9 f83c 5652 953d b542 43bd
00000280: 1e95 1fbd f5ee 033d e9a2 17c0 bb7a 33be
00000290: 1b57 bc3e 2fc9 5e3d 2ed1 583e 775f b1be
000002a0: 9ab6 e53e 00c9 b1bf d072 983d 7087 83bc
000002b0: 0c54 48bc 4d55 803d d0c5 cebd 9f20 0e3f
000002c0: f044 68bf ca0c 8f3c 2e67 a4be 0b68 1e3f
000002d0: 28d9 15be 805d dfbe 3ce0 79bd a397 0cbe
000002e0: 7e22 553e 6943 003e 348c 353d 7d1a 563d
000002f0: 2b29 f1bc b594 e0be 0966 813e 71ed a63d
00000300: c282 48bf c579 97bd 607d 863e 9014 b4bc
00000310: b4c5 88be 7649 a43e 4cd9 823e c8bd fcbe
00000320: 0d44 cabe f185 92bf 170d 203e 6823 413e
00000330: 00e6 c3bd 88a5 493f 01e5 a3bd 68b0 21bf
00000340: 064d 2cbf d802 e43e ccfa 72be ac94 40be
00000350: 73f5 adbf 6331 bebd 1f5f b93e 508f 4fbf
00000360: 2685 8abe e1be 503e 14e0 01bf 05df 03bf
00000370: 65a6 083f 7f4c e5be 44c1 29be 3974 cb3e
00000380: a488 efbe d0db bebe 4adb 3bbf ad56 4ebd
00000390: 9969 cdbe df8a 80be 9c93 f8be 54bc 883d
000003a0: 7e1e 24bf f613 96be d5ec 1b3e 9d61 e7bc
000003b0: 086e e03c 06ef 91be 36bb 64be 5d03 8fbe
000003c0: 3a8c b4be ff1c 9fbd 6327 b9be 695a 83be
000003d0: 7280 c8be d086 96bd e2ce 03be c824 3a3e
000003e0: 46ef 3dbf 60c5 423e 2949 42bf 2a75 1dbf
000003f0: 7d97 143e d24a 61bf 89e9 5f3d fe04 a2be

fc2.bias f4 [64]
-0.044068705 0.62139547 0.17331062 0.03501564 -0.41029793 0.41036382 0.023149436 -0.5542343
-0.04526221 -0.1450257 -0.19512047 -0.33880943 0.05837835 0.2138667 -0.3847275 -0.13401671
-0.44039342 -0.2104138 -0.29566616 0.30866972 -0.16801523 -0.28602213 -0.06520333 -0.11965274
-0.12664063 -0.20879379 -0.068812065 -0.37272906 -0.27122945 0.9308542 0.4439162 -0.0058387034
0.01539604 -0.28653616 0.3239115 -0.6524748 -0.4489456 0.886679 0.86591107 0.04610492
0.4347156 0.07000437 -0.39916375 0.33566293 0.16094413 -0.15133187 -0.17056035 -0.05936666
0.6636803 -0.092666686 0.008530151 0.36751065 0.5733187 -0.18381047 -0.34492946 -0.1411574
-0.2855651 0.3949208 -0.13634427 0.19699502 -0.10975536 -0.19210745 0.41959396 0.23964871
00000000: 6381 34bd c613 1f3f 5778 313e 8f6c 0f3d
00000010: 9212 d2be 351b d23e e3a3 bd3c 4de2 0dbf
00000020: de64 39bd 9e81 14be a9cd 47be 6e78 adbe
00000030: 231e 6f3d dfff 5a3e 01fb c4be ad3b 09be
00000040: 3f7b e1be b776 57be 8e61 97be f509 9e3e
00000050: 2f0c 2cbe 7e71 92be 5389 85bd 7f0c f5bd
00000060: 15ae 01be 0ace 55be 57ed 8cbd 58d6 bebe
00000070: 96de 8abe 764c 6e3f fc48 e33e 9852 bfbb
00000080: ac3f 7c3c deb4 92be bad7 a53e 9708 27bf
00000090: 33dc e5be 65fd 623f 59ac 5d3f 83d8 3c3d
000000a0: 0b93 de3e 735e 8f3d 315f ccbe 03dc ab3e
000000b0: 8ace 243e bef6 1abe 5fa7 2ebe 742a 73bd
000000c0: f4e6 293f 08c8 bdbd 0cc2 0b3c 5b2a bc3e
000000d0: 04c5 123f d038 3cbe 989a b0be 918b 10be
000000e0: 9735 92be 0f33 ca3e d59d 0bbe 10b9 493e
000000f0: 6bc7 e0bd d1b7 44be 05d5 d63e 7966 753e

fc3.weight f4 [4, 64]
-0.9148911 -0.051211037 0.20193584 -0.4769614 -0.5964702 0.3752634 0.21860366 0.43412784
0.49571067 0.127186 0.53889203 0.56175435 -0.5774778 0.32941228 0.4355226 0.4727696
-0.9648154 -0.5225008 -0.5324428 0.3120436 0.36063525 0.45889956 0.88049674 0.30042258
0.8262344 -0.52130866 0.64787847 0.2509671 -1.0106454 0.25613555 0.15214957 -0.4573685
0.20889731 0.77378625 0.30565113 -0.76779795 -1.1033665 0.2525289 0.12349977 -0.79485106
0.12548909 -0.45233795 -0.27622306 0.84229213 0.14342651 0.48605546 -0.47356233 0.0030905737
0.2446153 0.4569326 1.0567787 0.49112976 0.2543738 0.58245116 -0.42904952 -0.7051224
-1.2073222 0.18633798 -0.2019273 0.8083887 0.42440632 -0.9839961 0.19473356 0.19823201
0.40704352 -0.04626476 0.12674062 -0.051798437 0.17987953 0.5355299 0.32440653 0.14330015
0.25808585 0.56274587 0.74203676 -0.62435395 0.20009744 0.17798705 0.60970247 0.8346029
-0.09544703 -0.08392268 -0.28657642 0.37726778 0.39327478 0.58011466 0.44109565 0.91720307
0.84142166 -0.23349395 0.75610566 0.59229785 -0.6297296 0.22987609 0.14449893 -0.49636418
0.3087386 -0.6876774 -0.25508982 0.7196135 -0.37037465 0.0639373 0.30562878 -0.34479854
0.2721753 -0.9265849 -0.39807895 0.5603736 0.13779835 -0.12818141 0.047483716 0.028539289
0.24151348 -0.6559676 0.42297584 0.42824015 0.17716466 0.86413103 0.13830525 -0.592882
0.09050006 0.2004414 0.60995275 0.91254205 0.40146446 0.73369217 0.20577349 0.19699405
0.9489761 -0.3697728 -0.16646081 -0.6835327 -0.9059259 0.62930787 0.7481048 -0.48051223
0.5703849 0.2256768 0.36253664 0.77817196 -0.3315076 0.38940194 -0.106293805 -1.094402
-0.65097106 1.0085951 0.6249135 0.1868229 0.50335574 -0.6808704 0.40461037 -0.41269997
0.87877 -0.0265172 0.49923253 -0.16075537 0.40223336 0.23363315 -0.004119459 0.37063572
0.39280152 0.5783054 -0.0037380676 0.5445187 -0.5896991 0.2992814 0.27266994 -0.7103699
0.274742 -0.34404728 0.81294256 0.83489376 0.32606733 -0.6119793 0.46753627 -0.045422133
0.08051261 0.17950104 0.5647278 0.23382536 0.1405477 0.1316325 0.4688178 -0.613684
-0.31922182 0.21895306 0.750906 1.1586796 -0.6885237 -0.78123283 0.23535196 0.18745536
0.8993155 0.12423233 -0.006507817 -1.2104629 -0.23889117 0.463559 0.6925303 -0.60175115
0.25137684 0.5572264 -0.21276344 -1.0210886 -1.2143027 0.42363432 -0.4426096 0.27119246
-0.553674 0.90840954 0.5331938 0.2198919 -0.76629597 0.4657839 -0.5775636 0.7515104
0.77804995 0.73974794 0.7659403 0.519461 0.20061862 0.1650095 -0.16816263 -0.57095015
0.31945473 -0.8427165 -0.8745953 -0.5514687 -0.29193488 0.19824529 0.2901206 0.5560721
0.5043692 0.04822505 -0.5250757 0.59742576 0.21827537 -0.835187 0.5074327 0.08767628
0.2974734 -0.40043333 1.1062564 0.5236992 -0.0049897283 0.4331682 -0.42758924 1.1525999
-0.6966538 0.22307356 0.8681603 1.0204444 -0.52072453 0.012092584 0.060972545 0.16162883
00000000: 4e36 6abf aac2 51bd 45c8 4e3e 4934 f4be
00000010: 45b2 18bf 8622 c03e a3d9 5f3e 0146 de3e
00000020: cacd fd3e 0c3d 023e d4f4 093f 22cf 0f3f
00000030: 96d5 13bf baa8 a83e d1fc de3e db0e f23e
00000040: 24fe 76bf 9dc2 05bf 2c4e 08bf 2ec4 9f3e
00000050: 2fa5 b83e e2f4 ea3e 3c68 613f fdd0 993e
00000060: 1984 533f 7c74 05bf 5ddb 253f c27e 803e
00000070: d45c 81bf 3324 833e 19cd 1b3e 342c eabe
00000080: 2de9 553e db16 463f 4e7e 9c3e 688e 44bf
00000090: 1d3b 8dbf 784b 813e 73ed fc3d 5c7b 4bbf
000000a0: 3680 003e d798 e7be 1c6d 8dbe 75a0 573f
000000b0: 66de 123e 43dc f83e c376 f2be 398b 4a3b
000000c0: 6f7c 7a3e 12f3 e93e 8644 873f 5c75 fb3e
000000d0: 483d 823e 851b 153f 61ac dbbe e782 34bf
000000e0: 8989 9abf 62cf 3e3e 08c6 4ebe 90f2 4e3f
000000f0: c94b d93e 2be7 7bbf 3c68 473e 55fd 4a3e
00000100: 0268 d03e 1e80 3dbd 4bc8 013e 992a 54bd
00000110: 5732 383e 7d18 093f 9d18 a63e 46bd 123e
00000120: d423 843e 1d10 103f 1ff6 3d3f a9d5 1fbf
00000130: 58e6 4c3e 3d42 363e 7615 1c3f 89a8 553f
00000140: bc79 c3bd a7df abbd 25ba 92be 3e29 c13e
00000150: 505b c93e 6582 143f 4ad7 e13e d2cd 6a3f
00000160: 6967 573f 0a19 6fbe 2490 413f d5a0 173f
00000170: f635 21bf a364 6b3e 87f7 133e 7223 febe
00000180: fc12 9e3e a00b 30bf 229b 82be 9738 383f
00000190: bfa1 bdbe 8ff1 823d 607b 9c3e 6f89 b0be
000001a0: 905a 8b3e ab34 6dbf 01d1 cbbe a574 0f3f
000001b0: 031b 0d3e fd41 03be 497e 423d 3acb e93c
000001c0: 4f4f 773e 7eed 27bf 4a90 d83e 4b42 db3e
000001d0: a76a 353e b137 5d3f e49f 0d3e 1dc7 17bf
000001e0: 1858 b93d 8340 4d3e dd25 1c3f 5b9c 693f
000001f0: c08c cd3e 40d3 3b3f 49b6 523e cfb8 493e
00000200: 19f0 723f dc52 bdbe b474 2abe 00fc 2ebf
00000210: c3ea 67bf 521a 213f cc83 3f3f b305 f6be
00000220: bf04 123f d217 673e 679e b93e 4736 473f
00000230: 5dbb a9be b15f c73e 91b0 d9bd 5d15 8cbf
00000240: 0aa6 26bf a519 813f 55fa 1f3f 814e 3f3e
00000250: ecdb 003f 864d 2ebf 1729 cf3e 694d d3be
00000260: 12f7 603f 993a d9bc 689b ff3e 0e9d 24be
00000270: 88f1 cd3e 873d 6f3e 87fc 86bb f7c3 bd3e
00000280: 481d c93e d30b 143f 5efa 74bb 9465 0b3f
00000290: 85f6 16bf 693b 993e 659b 8b3e cdda 35bf
000002a0: fcaa 8c3e f726 b0be 011d 503f 99bb 553f
000002b0: 4cf2 a63e adaa 1cbf ea60 ef3e 8f0c 3abd
000002c0: cce3 a43d 1fcf 373e 0092 103f ea6f 6f3e
000002d0: bceb 0f3e acca 063e e308 f03e 651a 1dbf
000002e0: 0b71 a3be 3b35 603e 603b 403f 9d4f 943f
000002f0: 1743 30bf e0fe 47bf 1b00 713e 4cf4 3f3e
00000300: 8a39 663f 856d fe3d 873f d5bb 73f0 9abf
00000310: e39f 74be 9b57 ed3e aa49 313f 5d0c 1abf
00000320: 77b4 803e 64a6 0e3f a9de 59be 08b3 82bf
00000330: 456e 9bbf 99e6 d83e ba9d e2be bdd9 8a3e
00000340: 94bd 0dbf 878d 683f 647f 083f 582b 613e
00000350: f92b 44bf 3a7b ee3e 35db 13bf fc62 403f
00000360: 482e 473f 1f60 3d3f aa14 443f 65fb 043f
00000370: f86e 4d3e 40f8 283e d332 2cbe ca29 12bf
00000380: 928f a33e 45bc 57bf 7ae5 5fbf 0d2d 0dbf
00000390: 7d78 95be d000 4b3e b08a 943e be5a 0e3f
000003a0: 571e 013f a187 453d 5c6b 06bf e5f0 183f
000003b0: 9483 5f3e d1ce 55bf 1ce7 013f 9f8f b33d
000003c0: 6f4e 983e 9905 cdbe cf99 8d3f 2711 063f
000003d0: e080 a3bb 39c8 dd3e faec dabe 6588 933f
000003e0: e757 32bf 656d 643e c13f 5e3f ec9d 823f
000003f0: 344e 05bf f91f 463c 59be 793d 0782 253e

fc3.bias f4 [4]
0.7190322 0.6826512 0.8195723 0.72969973
00000000: 7f12 383f 3bc2 2e3f 7ecf 513f 9acd 3a3f
