ddqn_target_model.pth (torch, 29671 bytes, 6 tensors)

fc1.weight f4 [64, 37]
-0.63577324 -0.1761527 0.023400396 0.2096199 0.6620633 -0.014825168 -0.35577583 -0.050606403
0.42984137 0.29716703 -0.14148207 -0.16523834 0.20407726 0.025143946 0.021880245 -0.33226153
-0.47575933 0.33163092 0.27474308 0.036053967 -0.19539066 -0.8444713 0.02653854 0.0902418
0.27311975 -0.05638277 -0.24710125 0.19581032 -0.050732836 0.36425483 0.4336008 -0.554202
-0.45826542 -0.50045925 -0.50469863 -0.061197747 0.023929758 0.16122638 -0.18076897 0.23238254
0.14355753 -0.044535596 -0.2336217 0.08904042 0.71027493 -0.2350893 -0.65249354 -0.20261815
0.2040356 -0.1795568 0.4659656 0.40996942 -0.24403632 -0.18317534 0.27609247 -0.059745584
-0.43956494 0.26050135 -0.5082109 0.16505556 0.22192402 -0.31200662 0.35891393 0.35447958
-0.1884582 0.040260967 -0.49776965 0.33210364 -0.025884291 -0.22681253 -0.33216557 -0.23436901
0.06832441 -0.045912255 0.16005869 -0.17594706 -0.25137284 -0.28846982 -0.80515254 -0.11362048
0.31363338 -0.2669263 -0.08501826 -0.11684436 -0.6115433 -0.12489576 -0.17666228 0.07369415
-0.0903701 -0.5800515 0.29173064 -0.050243076 -0.3838251 0.86951953 -0.4913315 -0.19538188
0.42262334 -0.9364075 0.4755014 -0.13790861 0.2377627 -0.4543798 0.17074099 -0.30834204
-0.33901724 -0.32262486 0.30606872 0.07430379 0.31733876 -0.123025864 0.006336548 -0.44286463
0.29325947 0.19297317 0.12222794 -0.09268235 -0.5384633 0.30727115 0.7482389 -0.8169667
0.26156494 0.05568721 0.24572235 -0.2704837 -0.23539595 -0.07859635 -0.09881392 -0.0042690737
0.41818914 -0.40229297 -0.8705725 0.446754 -0.059885964 -0.26498944 -0.50629294 -0.23984243
-0.72360355 0.31200534 0.04662617 0.57329136 -0.024336815 0.33633795 -0.015165711 0.26801658
-0.21445481 -0.18598834 -0.036563527 -0.04788225 0.051857952 0.025965285 -0.03565586 0.012990078
-0.061507195 0.18476382 0.3975836 -0.04338565 -0.7397497 -0.519487 -0.1822227 0.12267354
0.2930697 0.06407572 0.23588039 0.19810224 0.03824645 -0.004525505 -0.27039796 -1.3503186
-0.34716856 0.33386898 0.43948966 -0.30191 0.40086403 0.30805743 -0.18141653 -0.21522266
-0.07168122 -0.044983048 0.24134293 0.06098848 0.08693681 -0.8560523 -0.6182508 -0.15763213
0.050507642 -0.0010126228 -0.45278373 -0.2815944 0.7749701 -1.0532436 -0.32643825 -0.087851785
0.203443 -1.0321435 -0.6252293 0.16149843 -1.263549 0.0935425 0.027325358 -0.3710671
-0.11868535 -0.051883526 0.24170494 -0.13643998 -0.4911129 0.2584424 -0.50212425 -0.32808506
0.31134674 -0.0044762967 -0.040258735 -0.0037139666 0.35400376 -1.4088635 -0.77624345 0.13368829
-0.18090166 -0.5334493 -0.60855585 0.3015106 -0.038219586 0.041392338 -0.22897807 -0.05144484
-0.7761784 -0.27793956 -0.68432015 -0.55311376 0.07987074 0.23018098 -0.81996405 0.4161559
-0.76713043 -0.46981323 0.34460288 -0.3466897 -1.7961423 0.07752694 -0.23064534 -0.7758327
0.07275483 -0.11361994 0.25178877 -0.6887264 -0.015201341 -1.3447179 -1.6495305 0.26179275
-1.0546325 -0.2551814 -0.96371865 -0.98890096 -0.5848473 -0.8761593 0.2511752 -0.6130284
00000000: 09c2 22bf 6061 34be 30b2 bf3c 99a6 563e
00000010: fb7c 293f 43e5 72bc 4028 b6be a948 4fbd
00000020: 2b14 dc3e 4726 983e ade0 10be 3d34 29be
00000030: a1f9 503e adfa cd3c 333e b33c 2f1e aabe
00000040: ba96 f3be 87cb a93e 20ab 8c3e 53ad 133d
00000050: 7d14 48be 452f 58bf 5a67 d93c b1d0 b83d
00000060: 5ad6 8b3e 9ff1 66bd 1c08 7dbe 8082 483e
00000070: 3ccd 4fbd 9c7f ba3e ed00 de3e 2fe0 0dbf
00000080: c4a1 eabe 191e 00bf ee33 01bf 7daa 7abd
00000090: 5708 c43c 8718 253e 801b 39be b0f5 6d3e
000000a0: bf00 133e f56a 36bd 873a 6fbe d35a b63d
000000b0: 94d4 353f 40bb 70be d109 27bf 227b 4fbe
000000c0: b5ee 503e bddd 37be 0b93 ee3e 83e7 d13e
000000d0: a8e4 79be 5192 3bbe fe5b 8d3e c9b7 74bd
000000e0: a80e e1be 6f60 853e 1c1a 02bf 5304 293e
000000f0: 0d40 633e 55bf 9fbe 91c3 b73e 597e b53e
00000100: 30fb 40be afe8 243d aadb febe 7d09 aa3e
00000110: 4b0b d4bc 8b41 68be 9b11 aabe 6efe 6fbe
00000120: abed 8b3d 7d0e 3cbd 6de6 233e 772b 34be
00000130: f1b3 80be 51b2 93be 7a1e 4ebf dbb1 e8bd
00000140: 8e94 a03e 90aa 88be 0e1e aebd 194c efbd
00000150: 1a8e 1cbf 59c9 ffbd f5e6 34be f5ec 963d
00000160: f613 b9bd 417e 14bf b85d 953e afcb 4dbd
00000170: b984 c4be d598 5e3f cd8f fbbe 3012 48be
00000180: 1662 d83e 67b8 6fbf eb74 f33e ea37 0dbe
00000190: 1178 733e 78a4 e8be bad6 2e3e 02df 9dbe
000001a0: ab93 adbe 162f a5be 0ab5 9c3e 962c 983d
000001b0: 3a7a a23e fcf4 fbbd d1a2 cf3b 27bf e2be
000001c0: 1b26 963e c29a 453e a452 fa3d 3ed0 bdbd
000001d0: bbd8 09bf a552 9d3e 968c 3f3f bb24 51bf
000001e0: d7eb 853e 4618 643d a49e 7b3e d77c 8abe
000001f0: a30b 71be 20f7 a0bd f45e cabd 96e3 8bbb
00000200: e31c d63e 58f9 cdbe d7dd 5ebf f1bc e43e
00000210: fc4a 75bd b2ac 87be 6a9c 01bf 4199 75be
00000220: 153e 39bf 2abf 9f3e 15fb 3e3d 39c3 123f
00000230: 005e c7bc 7d34 ac3e 9a79 78bc 7839 893e
00000240: 0b9a 5bbe ba73 3ebe a3c3 15bd 2e20 44bd
00000250: 0169 543d 26b5 d43c e10b 12bd 56d4 543c
00000260: f8ee 7bbd ba32 3d3e 1490 cb3e 27b5 31bd
00000270: 3d60 3dbf 1afd 04bf 9698 3abe 443c fb3d
00000280: 3b0d 963e 223a 833d a18a 713e 50db 4a3e
00000290: 4fa8 1c3d b04a 94bb 9a71 8abe 3dd7 acbf
000002a0: 14c0 b1be e0f0 aa3e ca04 e13e f393 9abe
000002b0: 0d3e cd3e b4b9 9d3e 41c5 39be 5463 5cbe
000002c0: 9acd 92bd 2540 38bd 9a22 773e 0ecf 793d
000002d0: ed0b b23d 3e26 5bbf af45 1ebf 516a 21be
000002e0: 1ae1 4e3d fcb9 84ba 45d3 e7be 242d 90be
000002f0: 7164 463f b0d0 86bf ea22 a7be a3eb b3bd
00000300: 5d53 503e 471d 84bf 070f 20bf d85f 253e
00000310: f9bb a1bf 3693 bf3d 6ed9 df3c 82fc bdbe
00000320: 4e11 f3bd d283 54bd 8081 773e ecb6 0bbe
00000330: 2673 fbbe 9052 843e 378b 00bf c4fa a7be
00000340: d768 9f3e e6ad 92bb 58e6 24bd 0566 73bb
00000350: fb3f b53e a455 b4bf e4b7 46bf 95e5 083e
00000360: 493e 39be 2290 08bf 51ca 1bbf 995f 9a3e
00000370: 248c 1cbd 038b 293d 3a79 6abe d3b7 52bd
00000380: a1b3 46bf 184e 8ebe 9b2f 2fbf dd98 0dbf
00000390: 4593 a33d 90b4 6b3e 2ae9 51bf 6312 d53e
000003a0: a962 44bf 5c8b f0be ca6f b03e 5081 b1be
000003b0: fee7 e5bf 72c6 9e3d 4b2e 6cbe f99c 46bf
000003c0: 7c00 953d 92b1 e8bd 75ea 803e 6050 30bf
000003d0: 0c0f 79bc b71f acbf d123 d3bf b309 863e
000003e0: 33fe 86bf 23a7 82be 44b6 76bf 9d28 7dbf
000003f0: 8db8 15bf fa4b 60bf 099a 803e 6eef 1cbf

fc1.bias f4 [64]
-0.12333138 0.09367944 -0.13638745 -0.12999855 -0.10541388 -0.019400982 -0.010716505 0.040959284
-0.037923913 0.20050764 -0.0003941889 -0.109275445 0.22544213 0.036148954 0.14016342 -0.16766296
0.059481792 0.030798284 -0.10398748 -0.19466397 -0.008057613 0.17664564 -0.080800556 -0.23415469
-0.1800164 0.1516658 -0.2776978 -0.0127632925 0.03632764 0.018385017 0.0026401712 0.11835537
0.12146321 -0.06724368 -0.12443378 0.21963342 -0.19590546 -0.34311813 -0.12165161 -0.47058105
-0.3054709 0.42175475 0.20300345 -0.08002195 0.01551932 -0.14021114 -0.07711031 -0.13779941
0.13607694 0.15265031 -0.051048357 0.06859754 0.16969997 0.16955863 0.095890924 0.06594306
-0.17938448 -0.08750145 -0.15206423 0.010469322 0.098256655 0.03917454 -0.095506206 -0.021354387
00000000: 2a95 fcbd 02db bf3d 27a9 0bbe 571e 05be
00000010: 3be3 d7bd cfee 9ebc 4894 2fbc ecc4 273d
00000020: 1b56 1bbd e051 4d3e 23ab ceb9 cecb dfbd
00000030: 4dda 663e ed10 143d 0087 0f3e d7af 2bbe
00000040: 2ea3 733d af4c fc3c 63f7 d4bd fe55 47be
00000050: 1404 04bc 98e2 343e c37a a5bd 3fc6 6fbe
00000060: 3856 38be 484e 1b3e 682e 8ebe 211d 51bc
00000070: 4bcc 143d 2d9c 963c b906 2d3b 4d64 f23d
00000080: b4c1 f83d 0eb7 89bd 23d7 febd 95e7 603e
00000090: 719b 48be 2ead afbe 7b24 f9bd 00f0 f0be
000000a0: af66 9cbe 3df0 d73e 23e0 4f3e 8ce2 a3bd
000000b0: bf44 7e3c 8293 0fbe 03ec 9dbd 4a1b 0dbe
000000c0: c157 0b3e 5d50 1c3e 1518 51bd de7c 8c3d
000000d0: d4c5 2d3e c7a0 2d3e 7662 c43d 280d 873d
000000e0: 91b0 37be f633 b3bd bab6 1bbe 8587 2b3c
000000f0: c93a c93d 7c75 203d c298 c3bd 65ef aebc

fc2.weight f4 [64, 64]
0.022290109 -0.07318489 -0.23346715 -0.29315677 -0.3402743 -0.44904098 -0.15085205 -0.10199781
-0.6396002 -0.09063566 0.251958 -0.3513608 -0.24655634 -0.16281174 -0.6261057 -0.8401104
-0.08407467 0.16160473 0.25041276 -0.09217644 -0.8115716 -0.03593456 -0.18359292 -0.2574357
0.115446106 0.2824637 -0.39756635 0.080131814 -0.25936094 -0.057515185 0.009500896 -0.034009326
-0.13670786 0.14527006 -0.037166886 -0.94259477 -0.02842716 -0.23533875 -0.30496448 0.23885243
-0.15954839 0.18104778 -0.14697179 0.1011827 -0.088154614 -0.0887283 0.22108129 0.10775859
-0.17947423 -0.15382037 0.0345778 -0.036567114 -0.22106342 -0.16008483 -0.011875399 -1.0537754
0.062315594 -0.4477416 -0.59128463 -0.64690775 -0.28460354 -0.07367812 0.31888217 0.026120456
0.10285774 -0.25515524 0.26070896 -0.119023025 0.057465944 -0.02318964 -0.11023588 0.10701977
0.0028284343 -0.17695874 -0.014067044 0.09741361 0.037311587 -0.11857088 -0.042196706 -0.6375634
-0.04765815 -0.075312674 0.42527586 0.09496697 -0.09367423 -0.07347672 0.05949653 -0.08913116
0.33543748 0.3630696 0.21748263 -0.0690972 0.18931486 -0.03682946 0.12216621 0.14798287
0.0027682474 0.058355063 0.19877252 0.057207577 -0.12777393 0.20959997 0.40556312 0.19290194
0.14727965 -0.026371818 -0.022469198 0.019302147 -0.050942425 -0.4237428 -0.25398764 -0.24932843
0.051128246 0.054104637 0.40666857 0.019784553 -0.05889331 0.069106184 -0.22259831 -0.17119184
0.045675334 -0.050759472 0.41215047 0.21739018 -0.31370944 -0.11313312 0.059741896 -0.06815942
-0.16134389 0.15100044 -0.011011309 0.14272295 0.099162176 0.058811072 -0.7863232 0.07017207
0.0242297 0.276595 -0.09790482 -0.4003445 -0.14574859 0.42267215 0.040329628 -0.31806877
0.16587132 0.03286479 -0.37921134 -0.22106215 0.11195523 0.006757783 -0.13962172 0.09933129
-0.091438726 -0.3551092 0.041606124 0.3015279 -0.23918085 0.055474646 0.020818623 0.15311812
-0.3136942 -0.1642923 -0.66855425 -0.24397014 -0.01065252 0.08384844 -0.048233554 -0.12213995
-0.29519472 0.003083892 0.28521565 -0.14545625 -0.31936905 -0.19090852 0.025622508 0.4137441
-0.31960168 -0.026827961 0.18305579 0.63192445 0.1742993 -0.044083912 -0.15219295 0.23661104
0.056671187 0.4063844 -0.08328247 -0.014990419 -0.09712839 -0.4188231 -0.15268266 0.05950034
-0.5914396 -0.07396869 0.18252002 -0.35601592 -0.27422038 0.16052589 0.2555641 -0.52582675
-0.2660903 -0.43484908 0.18547343 0.052609716 -0.054090895 0.6612367 0.26663864 -0.36126113
-0.18214154 0.28968778 -0.23728484 -0.20475557 -0.621838 -0.5343264 0.34587118 -0.5814618
0.03624748 0.13417464 -0.6023592 0.14654858 0.03424029 -0.13954802 -0.02173318 0.31562775
-0.29910535 -0.31748745 -0.71238947 -0.18073785 -0.71559614 -0.25127855 -0.40482023 0.06676546
-0.74245405 -0.13127191 -0.09982968 0.07329515 -0.6171173 -0.15739964 0.13849002 -0.15205309
-0.21820238 -0.0013804426 -0.535137 -0.13216002 -0.52724534 0.28905597 -0.14887318 -0.03937375
-0.4324351 0.2907249 -0.66644615 -0.60839117 0.14510913 -0.37156677 0.22806993 0.0038483448
00000000: bf99 b63c f6e1 95bd 0312 6fbe a518 96be
00000010: 6f38 aebe b3e8 e5be f678 1abe 3ae4 d0bd
00000020: d7bc 23bf 309f b9bd a400 813e 90e5 b3be
00000030: 4479 7cbe 1fb8 26be 7748 20bf 7a11 57bf
00000040: 572f acbd b67b 253e 1a36 803e 00c7 bcbd
00000050: 28c3 4fbf 1e30 13bd c8ff 3bbe 9dce 83be
00000060: 026f ec3d 159f 903e d18d cbbe 261c a43d
00000070: f5ca 84be 0b95 6bbd a5a9 1b3c 5d4d 0bbd
00000080: 25fd 0bbe adc1 143e 4e3c 18bd e44d 71bf
00000090: 13e0 e8bc a4fc 70be 4e24 9cbe bb95 743e
000000a0: a760 23be 9764 393e c67f 16be e038 cf3d
000000b0: 688a b4bd 2fb7 b5bd 2263 623e 89b0 dc3d
000000c0: 18c8 37be 1683 1dbe 74a1 0d3d 66c7 15bd
000000d0: 735e 62be 47ed 23be 0991 42bc 1de2 86bf
000000e0: a33e 7f3d 633e e5be 6e5e 17bf bf9b 25bf
000000f0: 8eb7 91be 8ee4 96bd 8644 a33e 91fa d53c
00000100: 14a7 d23d b5a3 82be a57b 853e 58c2 f3bd
00000110: 6961 6b3d 33f8 bdbc 59c3 e1bd 2e2d db3d
00000120: 415d 393b ac34 35be 7579 66bc c980 c73d
00000130: 09d4 183d 4ad5 f2bd 74d6 2cbd 5b37 23bf
00000140: 3135 43bd 883d 9abd c2bd d93e 0b7e c23d
00000150: 46d8 bfbd f67a 96bd a2b2 733d 668a b6bd
00000160: 76be ab3e 42e4 b93e c4b3 5e3e d582 8dbd
00000170: c1db 413e 7dda 16bd 4732 fa3d d288 173e
00000180: 7c6b 353b b805 6f3d 068b 4b3e 7e52 6a3d
00000190: 2bd7 02be 60a1 563e f8a5 cf3e 1688 453e
000001a0: 7ad0 163e b609 d8bc 5311 b8bc 891f 9e3c
000001b0: 01a9 50bd d1f4 d8be ab0a 82be f44f 7fbe
000001c0: da6b 513d d39c 5d3d dd36 d03e 3713 a23c
000001d0: 1d3a 71bd 8b87 8d3d d0f0 63be ea4c 2fbe
000001e0: 0f16 3b3d 2ae9 4fbd 6305 d33e 889b 5e3e
000001f0: 869e a0be 56b2 e7bd ebb3 743d 2a97 8bbd
00000200: 5537 25be dc9f 1a3e c768 34bc f725 123e
00000210: 8a15 cb3d e1e3 703d 7a4c 49bf 60b6 8f3d
00000220: 5d7d c63c dc9d 8d3e 5382 c8bd f4f9 ccbe
00000230: 1e3f 15be 7c68 d83e ae30 253d e9d9 a2be
00000240: 2cda 293e 3b9d 063d fd27 c2be 1e5e 62be
00000250: c948 e53d 6470 dd3b fff8 0ebe 346e cb3d
00000260: 3a44 bbbd e0d0 b5be 2f6b 2a3d dd61 9a3e
00000270: d3eb 74be 6239 633d d18b aa3c ffca 1c3e
00000280: 879c a0be 3e3c 28be 5f26 2bbf 4fd3 79be
00000290: e887 2ebc bbb8 ab3d 8c90 45bd 8324 fabd
000002a0: c323 97be 1f1b 4a3b c907 923e 7cf2 14be
000002b0: 5784 a3be 867d 43be 4be6 d13c 44d6 d33e
000002c0: d5a2 a3be 50c6 dbbc fa72 3b3e cdc5 213f
000002d0: 847b 323e 5591 34bd 78d8 1bbe 2a4a 723e
000002e0: 0c20 683d 9e11 d03e 0090 aabd 609a 75bc
000002f0: 40eb c6bd fb6f d6be d858 1cbe a1b6 733d
00000300: 9668 17bf e67c 97bd 87e6 3a3e b847 b6be
00000310: 9d66 8cbe e660 243e 4cd9 823e 959c 06bf
00000320: fd3c 88be 8aa4 debe bfec 3d3e 497d 573d
00000330: 6a8e 5dbd cf46 293f dc84 883e 38f7 b8be
00000340: 5083 3abe f551 943e ccfa 72be 72ab 51be
00000350: c630 1fbf 9dc9 08bf 0716 b13e aeda 14bf
00000360: 3d78 143d 1465 093e 3634 1abf d510 163e
00000370: 8c3f 0c3d ade5 0ebe c809 b2bc f699 a13e
00000380: 5624 99be b78d a2be 285f 36bf 5813 39be
00000390: 4f31 37bf 95a7 80be 9944 cfbe 54bc 883d
000003a0: 7811 3ebf 256c 06be 8173 ccbd c51b 963d
000003b0: 66fb 1dbf 5f2d 21be 54d0 0d3e ceb3 1bbe
000003c0: 7270 5fbe f8ef b4ba bdfe 08bf f554 07be
000003d0: 8df9 06bf 25ff 933e 3672 18be 5f46 21bd
000003e0: 2268 ddbe e5d9 943e 379c 2abf 86bf 1bbf
000003f0: 7d97 143e 003e bebe 2a8b 693e 8334 7c3b

fc2.bias f4 [64]
-0.03847819 0.4031504 0.24045153 -0.03355037 -0.29518336 0.46653128 0.19019093 -0.3202243
-0.022240808 0.15224291 -0.104779854 -0.15021428 -0.0055431915 0.18456915 -0.29647082 -0.088814735
-0.079078 -0.070724696 -0.0070265722 0.20124742 -0.104528025 -0.1948433 0.24743602 0.08713452
0.06701854 -0.055954173 -0.11746974 -0.25645223 -0.2414363 0.72615224 0.47761536 -0.11395898
0.115548216 -0.08309537 0.43043667 -0.4064117 -0.29610723 0.6735776 0.6751434 0.057835557
0.3940835 0.21496361 -0.27998587 0.5057831 0.17725042 -0.074903615 -0.10482753 -0.05936666
0.48426732 0.0017761386 -0.10169404 0.34899774 0.40418187 0.021302005 -0.1444833 -0.053555194
-0.12969835 0.22556409 0.07977218 0.2703916 -0.08916789 -0.13948028 0.21340862 0.08818041
00000000: 4e9b 1dbd bb69 ce3e ed38 763e 1d6c 09bd
00000010: 4622 97be 30dd ee3e 69c1 423e 70f4 a3be
00000020: 5b32 b6bc 91e5 1b3e d296 d6bd c6d1 19be
00000030: a9a3 b5bb b2ff 3c3e 06cb 97be 80e4 b5bd
00000040: a5f3 a1bd 1cd8 90bd 293f e6bb ce13 4e3e
00000050: ca12 d6bd 0185 47be de5f 7d3e 9573 b23d
00000060: 0441 893d 3430 65bd fa93 f0bd b54d 83be
00000070: 143b 77be 1de5 393f 008a f43e 5363 e9bd
00000080: 8ba4 ec3d e82d aabd 3262 dc3e 3215 d0be
00000090: 5e9b 97be 956f 2c3f 33d6 2c3f fae4 6c3d
000000a0: 50c5 c93e 6c1f 5c3e 4f5a 8fbe 007b 013f
000000b0: 2281 353e 1167 99bd d1af d6bd 742a 73bd
000000c0: e3f1 f73e 52cd e83a f744 d0bd d5af b23e
000000d0: edf0 ce3e 8b81 ae3c 6ef3 13be b15c 5bbd
000000e0: a5cf 04be 46fa 663e 995f a33d c570 8a3e
000000f0: a89d b6bd ebd3 0ebe ca87 5a3e ee97 b43d

fc3.weight f4 [4, 64]
-0.652892 0.055243053 0.35918632 -0.14506145 -0.6376809 0.2364921 -0.93684375 0.024404917
0.33866572 -0.342637 0.58295184 -0.042546954 -0.34710664 0.19765645 0.49435842 0.35367343
-0.7029618 -0.98487425 -0.34688532 0.18095092 0.37651396 0.50444055 0.23768736 0.53718287
0.7517761 -0.26542455 0.5146327 0.0113775125 -1.0106454 0.22210795 0.17464739 -0.1538591
0.0896219 -0.45545456 0.25712943 -0.68652093 -0.8110113 0.18981877 0.11837948 -0.5359595
0.16696668 0.223356 -0.36129984 0.14481509 0.21254219 0.573754 -0.47356233 0.0030905737
0.10142645 0.52159476 0.6558892 0.30149803 0.16337553 0.39022428 -0.3751073 -0.77369887
-0.67765176 0.12281918 -0.18050933 -0.06975316 0.07786981 -1.1122246 0.36326382 0.20019545
0.38660505 0.07517975 0.39287797 -0.456873 0.25562373 0.20134869 -0.01802965 -0.18529165
0.3567131 0.28980437 0.79707575 0.0703328 0.16243628 0.09949384 0.60970247 0.6795234
-0.12345825 0.16976163 -0.095054686 0.14424835 0.43527225 0.6482309 0.2128066 0.39836755
0.6523776 -0.04472178 0.5043708 0.5278294 -0.6297296 0.23038441 0.2565599 0.021685494
0.03472678 -0.23696896 0.31421083 0.5503361 -0.13913077 -0.018526513 0.22001491 -0.038189102
0.22629647 -0.4691023 -0.4866992 0.16651723 0.18033122 -0.12818141 0.047483716 0.028539289
0.12767345 -0.6559676 0.50227183 0.2689466 0.1761654 0.74653566 0.13041359 -1.243199
0.5381649 0.16729987 -0.28327432 0.48388383 0.41734317 0.61557835 0.17844875 0.19115378
0.7067866 -0.09862406 0.061799254 -0.61883384 -0.9666988 0.0064098244 0.62692624 -0.48432097
0.6966 -0.2441512 0.39161777 0.018606499 0.59347695 0.26401764 -0.12206521 -0.7079906
-0.7865458 0.55561244 0.24702883 0.12878372 0.50335574 -0.65761274 0.25176454 -0.689615
0.5605527 -0.1057688 0.16571118 -0.44207916 0.4178081 0.15806289 0.09119015 0.76767874
0.17727882 0.6680625 0.34690922 0.6819314 -0.55872846 0.24075122 0.22542566 0.6726569
0.11420808 -0.75525564 0.7288732 0.29855525 0.29131833 -0.62206614 0.48804626 -0.045422133
0.19233905 0.19498932 1.2096117 0.28439742 0.18048546 0.027539317 0.640077 -0.83496046
0.39269066 0.21685112 0.18021224 0.01608753 -0.61358863 -0.85610396 0.33237144 0.03249998
0.7970519 0.23253605 0.15392533 -0.528497 -0.14223321 0.26002946 0.47031325 -0.63002527
0.27051482 0.29188606 -0.036976147 -0.05358574 -0.7824684 0.31028184 -0.45846447 0.5656546
-0.7475919 0.18908015 0.2997066 0.20248516 -0.76629597 0.5047028 -0.55769926 0.4748284
0.5999864 1.0721362 0.7454873 0.3954265 0.20573011 0.10387262 0.045008816 -0.34615728
0.22210306 -1.1203349 0.119697876 -0.7102079 -0.23060015 0.18486834 0.22481076 0.4317377
0.22685789 -0.65709287 -0.41152316 0.2507548 0.18173185 -0.8081503 0.5389874 0.08767628
0.2367541 -0.40043333 0.58293813 0.18877628 -0.003838643 0.4736735 -0.42758924 0.594992
-0.011714651 0.16530673 0.8390153 0.8033508 -0.50979304 0.012092584 0.11663534 0.2839103
00000000: ee23 27bf 8a46 623d 45e7 b73e fd8a 14be
00000010: 0e3f 23bf fc2a 723e fed4 6fbf d2ec c73c
00000020: 9865 ad3e 1e6e afbe 553c 153f b745 2ebd
00000030: f6b7 b1be 7466 4a3e 8c1c fd3e af14 b53e
00000040: 4ef5 33bf b820 7cbf f49a b1be 334b 393e
00000050: 70c6 c03e 0423 013f 5164 733e d184 093f
00000060: 6674 403f bae5 87be f8be 033f bf68 3a3c
00000070: d45c 81bf 4470 633e c4d6 323e 3d8d 1dbe
00000080: b08b b73d 5731 e9be 78a6 833e d6bf 2fbf
00000090: 709e 4fbf da5f 423e f170 f23d a434 09bf
000000a0: 50f9 2a3e 6fb7 643e 4bfc b8be 684a 143e
000000b0: a9a4 593e 8be1 123f c376 f2be 398b 4a3b
000000c0: acb8 cf3d 3c87 053f 5be8 273f f35d 9a3e
000000d0: ea4b 273e 7acb c73e 100e c0be 2111 46bf
000000e0: 967a 2dbf 9f88 fb3d 70d7 38be bfda 8ebd
000000f0: 357a 9f3d 605d 8ebf b7fd b93e 0900 4d3e
00000100: 19f1 c53e d7f7 993d 4d27 c93e 42eb e9be
00000110: 1de1 823e 5a2e 4e3e ebb2 93bc 18bd 3dbe
00000120: 19a3 b63e 3d61 943e 280d 4c3f a50a 903d
00000130: b255 263e 6dc3 cb3d 7615 1c3f 3ff5 2d3f
00000140: aed7 fcbd fed5 2d3e 08ac c2bd d7b5 133e
00000150: 01dc de3e 76f2 253f f9e9 593e d5f6 cb3e
00000160: 3802 273f 2f2e 37bd 721e 013f d41f 073f
00000170: f635 21bf e4e9 6b3e d25b 833e c7a5 b13c
00000180: ab3d 0e3d fea7 72be 3ee0 a03e d4e2 0c3f
00000190: 4c78 0ebe eac4 97bc 974b 613e 2d6c 1cbd
000001a0: 43ba 673e 2d2e f0be a330 f9be 7e83 2a3e
000001b0: bfa8 383e fd41 03be 497e 423d 3acb e93c
000001c0: d4bc 023e 7eed 27bf e394 003f 5eb3 893e
000001d0: b464 343e f61c 3f3f 248b 053e 2521 9fbf
000001e0: 2dc5 093f a850 2b3e 5509 91be 9fbf f73e
000001f0: 01ae d53e 8b96 1d3f 45bb 363e d1bd 433e
00000200: f7ef 343f 69fb c9bd 3721 7d3d e56b 1ebf
00000210: 9379 77bf 8109 d23b 3d7e 203f ebf8 f7be
00000220: 6154 323f c602 7abe 2082 c83e a86c 983c
00000230: 1bee 173f 522d 873e 53fd f9bd df3e 35bf
00000240: 115b 49bf 9e3c 0e3f 20f5 7c3e e1df 033e
00000250: ecdb 003f 4f59 28bf 48e7 803e 9c8a 30bf
00000260: 6280 0f3f 509d d8bd 31b0 293e 3358 e2be
00000270: f1ea d53e 3ddb 213e e7c1 ba3d 9886 443f
00000280: 9488 353e 2506 2b3f 169e b13e 0e93 2e3f
00000290: d408 0fbf 7d87 763e fcd5 663e 3e33 2c3f
000002a0: ede5 e93d 6f58 41bf 6f97 3a3f 3cdc 983e
000002b0: ad27 953e ba3f 1fbf 33e1 f93e 8f0c 3abd
000002c0: 87f4 443e 48ab 473e 8ed4 9a3f 8a9c 913e
000002d0: 2ed1 383e 229a e13c 16dc 233f f8bf 55bf
000002e0: c00e c93e 380e 5e3e 8f89 383e ffc9 833c
000002f0: 2514 1dbf a129 5bbf 972c aa3e b31e 053d
00000300: 980b 4c3f ee1d 6e3e 9a9e 1d3e 944b 07bf
00000310: 95a5 11be 9522 853e e6cc f03e 5649 21bf
00000320: eb80 8a3e 1772 953e 4d74 17bd b97c 5bbd
00000330: d94f 48bf 43dd 9e3e dbbb eabe bdce 103f
00000340: 2f62 3fbf 3a9e 413e 2573 993e 4558 4f3e
00000350: f92b 44bf 3434 013f 61c5 0ebf b51c f33e
00000360: b598 193f c23b 893f 41d8 3e3f 5875 ca3e
00000370: eaaa 523e 2bbb d43d 2a5b 383d 873b b1be
00000380: fc6e 633e 2267 8fbf 2924 f53d 2fd0 35bf
00000390: 7222 6cbe 204e 3d3e cb34 663e b90c dd3e
000003a0: 6f4d 683e 3d37 28bf 2ab3 d2be ef62 803e
000003b0: ea17 3a3e f0e2 4ebf 14fb 093f 9f8f b33d
000003c0: ab6f 723e 9905 cdbe 6f3b 153f 924e 413e
000003d0: be91 7bbb 5585 f23e faec dabe 6551 183f
000003e0: cfee 3fbc 2b46 293e b5c9 563f 66a8 4d3f
000003f0: cc81 02bf f91f 463c 82de ee3d b15c 913e

fc3.bias f4 [4]
0.58661586 0.48621526 0.46218672 0.4916363
00000000: 752c 163f 35f1 f83e bda3 ec3e c1b7 fb3e
