ddqn_online_model.pth (torch, 29671 bytes, 6 tensors)

fc1.weight f4 [64, 37]
00000000: 9264 20bf 669c 38be 3b96 bc3c 9c64 4f3e
00000010: a678 2a3f ac99 38bc e077 b9be bb4e 5ebd
00000020: cb82 d93e 7867 973e b93a 15be d609 2abe
00000030: 9d14 543e 38cf 913c 9ed1 883c b286 aabe
00000040: efb6 f3be efb8 a73e e77d 8c3e 99ed fd3c
00000050: b4ba 48be 5d45 5abf 3a6a c43c 36c8 b83d
00000060: f111 883e 6f89 70bd 2536 7ebe 1270 443e
00000070: 25ad 43bd 6a3b b83e 2246 dc3e 474c 0fbf
00000080: bd8d ebbe 0e80 ffbe 9c12 03bf 34c9 80bd
00000090: 115b b73c 8384 243e 58e9 32be f04b 703e
000000a0: 87f8 0c3e 75c8 38bd 0c5d 73be 1425 c33d
000000b0: 5df0 363f 84f4 71be a783 26bf 87fa 4bbe
000000c0: 5a77 563e 88d1 42be b4b8 ee3e d461 d53e
000000d0: 628a 7ebe 50c2 35be ecd3 903e fe8c 7bbd
000000e0: bf25 dfbe fe94 833e cc23 02bf 82ed 2d3e
000000f0: 9780 6c3e eead 9ebe 2578 b53e f64a b83e
00000100: 367e 44be 3fb4 4f3d 3562 01bf 38d3 a63e
00000110: 4ba2 95bc c18f 64be d35f a8be 847e 72be
00000120: 8dec 873d 9477 2cbd c069 1d3e 403d 34be
00000130: 184d 7bbe 2d8c 94be 619e 4dbf 6569 e9bd
00000140: d3e7 9f3e f97b 86be 2345 b1bd c8d1 e7bd
00000150: 5f34 1cbf d71c fabd 8ef5 3dbe d1ec 9a3d
00000160: cc8b b2bd 825b 14bf 7957 933e 273d 40bd
00000170: 82b2 c4be e2ee 5e3f 5c30 fcbe d470 47be
00000180: e996 d73e 60ba 6dbf 93f4 f13e 88e5 10be
00000190: 622a 6a3e c383 e5be 009e 343e abcb 9fbe
000001a0: dc33 afbe 43b2 a5be 5186 9c3e 2d8d a13d
000001b0: 8ed7 a13e c2f8 f7bd dab0 003c 1802 e4be
000001c0: 4e58 963e 86e3 493e 62cb f33d d9a0 c1bd
000001d0: f213 0bbf 19b6 9e3e 150c 403f 3faf 54bf
000001e0: ed2f 893e 99d6 533d aa75 7b3e 63bf 87be
000001f0: 9493 6cbe 2c7b a3bd 9db4 d7bd 4adc b238
00000200: 51fb d93e 3cbf cfbe b744 5ebf bba7 e33e
00000210: 5399 6abd 82fa 86be 181d 03bf 7a06 6abe
00000220: 9efb 38bf 22bb a03e 030d 753d d412 103f
00000230: 8abd 90bc cdc1 a93e cfff 58bc eef4 883e
00000240: 7dbb 4fbe 267b 3bbe f56d ffbc df0f 57bd
00000250: 9afa 503d aacf b83c 9391 06bd 181a 173c
00000260: cc07 74bd e4fe 3c3e 0f59 ca3e b65a 2abd
00000270: 934f 3cbf 6477 05bf 2e01 3bbe b6dc ff3d
00000280: 9cd4 943e 0ffb 843d 4f0e 723e 5a00 4c3e
00000290: 3714 0b3d b960 adbb 616b 89be 5a71 acbf
000002a0: b51c b2be e565 ab3e 7f73 e13e 4669 9abe
000002b0: 8a50 cd3e df76 9e3e 95a6 3fbe fa02 5bbe
000002c0: 434b a1bd 8245 41bd bd03 763e 0cf2 7b3d
000002d0: 3966 b93d 014f 5bbf 155e 1fbf 8c55 21be
000002e0: 3509 593d 8b5f 973b cc73 ebbe 40ce 90be
000002f0: e6cd 453f 3cdd 86bf c529 a6be cf7e babd
00000300: 7e0d 4f3e f2bb 84bf b6cd 1ebf 8049 233e
00000310: 6da0 a2bf 645f c13d 9e5c fc3c 81ef c0be
00000320: 7415 efbd 06c6 75bd df11 793e 8c2d 0cbe
00000330: 842b fcbe 4295 833e 5669 fdbe bf8d a9be
00000340: fa6c a03e 2a9b c9bb 648b 42bd c961 2dbb
00000350: 8999 ba3e f29a b4bf a5c5 46bf 8ec9 043e
00000360: 1668 2bbe 1c7e 09bf e434 1abf 7889 9b3e
00000370: e794 1ebd d6ad 293d 8e51 6abe acca 50bd
00000380: 17b4 46bf a4c3 8ebe bb27 30bf 6f99 0dbf
00000390: a085 ac3d 87a7 653e cee9 51bf de05 d43e
000003a0: f662 44bf 988b f0be 3d50 b13e a445 b3be
000003b0: d558 e6bf f470 933d 1402 61be ae9d 46bf
000003c0: 3016 933d 1142 eebd 964c 7f3e 6e50 30bf
000003d0: ddf1 68bc 4720 acbf bba9 d3bf 6c6a 843e
000003e0: 139a 85bf a5fb 82be 83b6 76bf 2923 7dbf
000003f0: 04b8 15bf 674b 60bf a84b 7e3e 79ef 1cbf
-0.6265346 -0.18028411 0.023020854 0.20253223 0.66590345 -0.011267107 -0.3622427 -0.054274302
0.424826 0.29571128 -0.14573182 -0.16605315 0.20710988 0.017799005 0.016701516 -0.3330589
-0.47600505 0.3275828 0.27439806 0.030997084 -0.19602472 -0.8526209 0.023976434 0.09022562
0.26576188 -0.058724817 -0.24825342 0.19183376 -0.047772545 0.3598283 0.43022257 -0.55975765
-0.46006575 -0.49902385 -0.5120027 -0.062883765 0.022382291 0.16066174 -0.17471826 0.23466468
0.1376668 -0.045113046 -0.23765963 0.095285565 0.71460515 -0.23628432 -0.65044636 -0.19919787
0.20943967 -0.19025242 0.46625292 0.416762 -0.24857476 -0.17749906 0.28286684 -0.061413758
-0.43583485 0.2569961 -0.5083587 0.16985133 0.23095928 -0.30992073 0.35443226 0.3599469
-0.1918877 0.050709005 -0.5054048 0.32583022 -0.018265864 -0.22320463 -0.32885608 -0.23681074
0.06636915 -0.042106226 0.15372372 -0.1760149 -0.24541128 -0.29013196 -0.8031979 -0.113970555
0.31231555 -0.2626646 -0.08655765 -0.113193095 -0.6101741 -0.12212532 -0.18550703 0.075647004
-0.087180704 -0.5795213 0.28777674 -0.04693332 -0.3841744 0.87083256 -0.49255645 -0.19476634
0.42107323 -0.9286251 0.47256908 -0.14150059 0.2286773 -0.4482709 0.17638397 -0.31210074
-0.34219253 -0.32362565 0.30571225 0.07888255 0.31609768 -0.12107994 0.007854665 -0.44532847
0.29364246 0.197157 0.119040266 -0.094545074 -0.5432731 0.30998304 0.75018436 -0.83079904
0.26794377 0.05171833 0.24556604 -0.26513204 -0.23103172 -0.079824775 -0.10532496 8.5287335e-05
0.42574552 -0.40575588 -0.868236 0.44463906 -0.057275128 -0.26362997 -0.5121627 -0.22854033
-0.7225894 0.3139277 0.059826862 0.5627873 -0.017668504 0.3315567 -0.013244583 0.26749367
-0.20286365 -0.18308696 -0.031180361 -0.05250537 0.051020242 0.02255996 -0.032853674 0.00922253
-0.05957775 0.18456608 0.3952107 -0.041590415 -0.7355892 -0.521353 -0.18262169 0.12493269
0.29068458 0.06493198 0.23638271 0.19922009 0.033954825 -0.0052910713 -0.26839736 -1.3472092
-0.34787527 0.33476177 0.4403343 -0.30158442 0.4010051 0.30950066 -0.1871589 -0.21387854
-0.07875683 -0.04718543 0.24024864 0.06151013 0.090527005 -0.85667425 -0.6225293 -0.1575529
0.052987296 0.004619544 -0.45986784 -0.28282356 0.772673 -1.0536265 -0.32453743 -0.09106218
0.2021999 -1.0369856 -0.6203264 0.15946007 -1.2705208 0.094420224 0.030805882 -0.37682727
-0.11674014 -0.060003303 0.24323224 -0.1368925 -0.4925195 0.25699812 -0.49494427 -0.33115956
0.31333143 -0.00615253 -0.047496215 -0.002645599 0.36445263 -1.4109786 -0.7764533 0.12967512
-0.16738924 -0.5370805 -0.60236955 0.30378318 -0.038716223 0.04142555 -0.22882673 -0.050974533
-0.77618545 -0.27883637 -0.68810624 -0.55312246 0.084239244 0.22427188 -0.8199738 0.41410726
-0.767135 -0.46981502 0.3463153 -0.3501407 -1.7995859 0.071992785 -0.21973449 -0.7758435
0.07181966 -0.11633695 0.24931559 -0.68872726 -0.014217821 -1.344735 -1.6536173 0.25862443
-1.0437645 -0.25582615 -0.9637224 -0.98881775 -0.5848391 -0.87615055 0.24833548 -0.61302906

fc1.bias f4 [64]
00000000: ffd5 01be 75ca c33d 8f22 0cbe 6a03 04be
00000010: f158 d8bd 641a a1bc cb12 5ebc e8d7 283d
00000020: f736 23bd 4322 4f3e 67a7 c5ba 6c40 e0bd
00000030: cb8c 673e 40d0 0e3d 1f61 0c3e f20e 2bbe
00000040: 2f82 6a3d c1e8 dc3c b304 d3bd b290 44be
00000050: 1f70 f3bb 8623 343e b4a2 a0bd ec27 71be
00000060: 069c 37be f937 1b3e f9ca 8ebe 2015 34bc
00000070: e848 103d 27a8 8e3c fe9f c23a 6fb0 f03d
00000080: 5a28 f93d 3791 8bbd 2749 ffbd 944f 5e3e
00000090: 6500 4abe aa6b adbe 4f30 e7bd 235e f0be
000000a0: 2db5 9dbe 118e d63e 41ff 4f3e 5688 a3bd
000000b0: bd16 853c f1f5 12be 825d 9bbd 24c2 0bbe
000000c0: 7a66 0b3e d98d 1b3e d560 53bd 9d09 8e3d
000000d0: e0f1 303e a0c3 2b3e 374f c93d daf9 893d
000000e0: 6c04 35be 0a98 aebd b487 1bbe 9552 4d3c
000000f0: 2c84 c53d b865 1e3d 6db5 c4bd 9ded a7bc
-0.1267929 0.095601 -0.13685058 -0.12891927 -0.10563839 -0.019665904 -0.013554285 0.04122153
-0.03984734 0.20227914 -0.0015079797 -0.109497875 0.22612302 0.03486657 0.13708924 -0.1670492
0.05725306 0.026966454 -0.10303631 -0.19195822 -0.0074291374 0.17591676 -0.07843533 -0.23550385
-0.17930612 0.1515807 -0.2788923 -0.010991365 0.03522578 0.017414166 0.0014848707 0.11752402
0.121658996 -0.06814807 -0.124651246 0.21710044 -0.19726713 -0.33871204 -0.11288511 -0.4694682
-0.3080229 0.41905263 0.20312215 -0.079849884 0.016246194 -0.14351632 -0.075861946 -0.13648278
0.1361331 0.1519083 -0.051606018 0.06935427 0.17279768 0.16773844 0.09829562 0.067371085
-0.17677468 -0.08525093 -0.15188485 0.012531896 0.096443504 0.038671225 -0.09604917 -0.020499045

fc2.weight f4 [64, 64]
00000000: fb98 b63c 66e2 95bd a312 6fbe 6818 96be
00000010: 7f38 aebe 3fe9 e5be 2c79 1abe aee4 d0bd
00000020: 0ebd 23bf eb9f b9bd 5200 813e ede5 b3be
00000030: ea79 7cbe c6b8 26be 2249 20bf f311 57bf
00000040: a22f acbd 367b 253e a635 803e 04c7 bcbd
00000050: 73c2 4fbf 3730 13bd deff 3bbe 12cf 83be
00000060: 856e ec3d af9e 903e e38d cbbe 7c1b a43d
00000070: 9dcb 84be 5b95 6bbd 37a9 1b3c b24d 0bbd
00000080: 97fd 0bbe 53c1 143e a43c 18bd 864e 71bf
00000090: 37e0 e8bc bbfc 70be b424 9cbe 8c95 743e
000000a0: 0861 23be 1a64 393e ff7f 16be ce38 cf3d
000000b0: 8d8a b4bd b8b6 b5bd cd62 623e 4bb0 dc3d
000000c0: 47c8 37be c583 1dbe 23a1 0d3d 02c8 15bd
000000d0: 0c5f 62be f5ed 23be 4f91 42bc cae2 86bf
000000e0: 0a3e 7f3d 823e e5be c55e 17bf 729c 25bf
000000f0: ebb7 91be f8e4 96bd 0b44 a33e 3efa d53c
00000100: dc33 c83d 75c2 83be 68cf 853e 4b6f ffbd
00000110: 9038 583d 088b c3bc e76e ddbd 5837 d33d
00000120: e707 d73b 45f3 36be 01a9 91bc c8ca c03d
00000130: e269 183d 4165 e2bd d22d 34bd 76cc 23bf
00000140: a026 49bd a3c4 8abd d415 d93e 9097 c43d
00000150: 0c7d b7bd e29e 93bd a0bd 783d 595b a7bd
00000160: 5f46 af3e 297b b83e fdd1 643e 48e4 81bd
00000170: 5f6e 423e 8568 25bd c393 f73d 57d0 193e
00000180: 85b1 ae3b 0c85 743d 081b 4e3e def8 593d
00000190: bd6c 03be 3827 553e 15bf d23e 56e7 433e
000001a0: f73f 1b3e 5eb8 ffbc e5aa bebc bcf6 9f3c
000001b0: 0b68 50bd c1c0 d8be 7cac 83be b8f7 76be
000001c0: d03d 4b3d fcf2 693d 3d94 cd3e 8dcc 9f3c
000001d0: 1814 65bd c12f 843d 905f 61be 6bf6 31be
000001e0: c685 3d3d 2a8d 6ebd fbc5 d53e a775 623e
000001f0: 65cf a1be 0577 eabd 0074 5c3d 4eb7 8ebd
00000200: 0b55 22be d289 1c3e db63 4ebc 61d8 0b3e
00000210: f5f2 cd3d 8627 6a3d 94e9 49bf da67 893d
00000220: a3f7 c93c 95bd 8c3e bc8e d0bd 7a10 d5be
00000230: 2f71 15be 885c d93e 8a61 223d 2990 a4be
00000240: cedb 263e 16b5 353d d59f c1be 170a 5fbe
00000250: bb63 e23d 3418 0c3c fe9c 0abe f870 d63d
00000260: ab12 b2bd 6931 b5be e811 263d 0e6f 9a3e
00000270: ef13 77be 74fb 683d 21f4 b13c 0441 1d3e
00000280: 7887 9ebe 55cf 2abe b9ea 26bf b931 7dbe
00000290: 0454 3fbc a162 943d 8ffd 3bbd 197c 04be
000002a0: 5330 97be 65b9 a53b b963 923e b392 12be
000002b0: 6fe2 a5be e009 46be 72f0 243d 5639 d63e
000002c0: 26fa a1be fca4 cabc 2584 3a3e 7b86 213f
000002d0: eb05 343e 0c60 3dbd 473b 1cbe f3c0 743e
000002e0: 18a9 813d 30be ce3e 7eaf 9dbd ec62 77bc
000002f0: 108a c8bd 4f00 d7be 701f 1dbe 97b0 753d
00000300: b768 17bf e47c 97bd cde5 3a3e c247 b6be
00000310: 1e67 8cbe 8260 243e 40d9 823e 9a9c 06bf
00000320: 773d 88be d4a4 debe 74ec 3d3e 987c 573d
00000330: dd8e 5dbd 0747 293f 7d84 883e 33f7 b8be
00000340: f583 3abe 8851 943e defa 72be 8cab 51be
00000350: 4531 1fbf ebc9 08bf bb15 b13e 43db 14bf
00000360: cf77 143d b064 093e 8334 1abf 1d10 163e
00000370: f13e 0c3d 43e6 0ebe 570a b2bc 6599 a13e
00000380: f524 99be b18d a2be a55f 36bf c813 39be
00000390: 3731 37bf f0a7 80be d744 cfbe b3bb 883d
000003a0: f511 3ebf ba6c 06be df73 ccbd 5c1b 963d
000003b0: 6cfb 1dbf 822d 21be 16d0 0d3e 05b4 1bbe
000003c0: 0971 5fbe f0ef b4ba 21ff 08bf 6c55 07be
000003d0: 96f9 06bf 6efe 933e 6972 18be 1047 21bd
000003e0: dd68 ddbe aed9 943e 649c 2abf c0bf 1bbf
000003f0: c496 143e 4a3e bebe e08a 693e 3134 7c3b
0.022289744 -0.07318573 -0.23346953 -0.29315495 -0.34027478 -0.44904515 -0.15085286 -0.10199867
-0.6396035 -0.09063705 0.25195557 -0.35136357 -0.24655882 -0.16281423 -0.6261159 -0.84011763
-0.08407523 0.16160282 0.2504093 -0.09217647 -0.8115608 -0.035934653 -0.18359324 -0.2574392
0.115445174 0.28246066 -0.39756688 0.08013055 -0.25936595 -0.057515483 0.009500793 -0.034009643
-0.13670956 0.14526872 -0.037167206 -0.9426044 -0.028427226 -0.23533909 -0.30496752 0.23885173
-0.15954983 0.18104592 -0.14697264 0.101182565 -0.08815489 -0.088727415 0.22108002 0.10775813
-0.17947493 -0.15382297 0.0345775 -0.036567695 -0.2210657 -0.16008742 -0.011875465 -1.053796
0.062315024 -0.44774252 -0.5912898 -0.6469184 -0.2846063 -0.07367891 0.3188785 0.026120301
0.097755164 -0.25734296 0.261348 -0.12472399 0.052788317 -0.023870006 -0.108121686 0.1031329
0.0065622213 -0.17866237 -0.017780783 0.094136775 0.037210353 -0.11054469 -0.04398901 -0.6398386
-0.0491091 -0.06775787 0.42399466 0.09599221 -0.08959398 -0.07208039 0.060727715 -0.0817172
0.34233376 0.36031464 0.22345729 -0.06342369 0.18987416 -0.04038288 0.1208873 0.15020882
0.0053312206 0.059697196 0.20127499 0.053215854 -0.12834449 0.20815742 0.4116141 0.19131216
0.1516112 -0.031215843 -0.023274848 0.019526832 -0.050880473 -0.4233456 -0.25717533 -0.24117935
0.049619496 0.057116494 0.4015216 0.019506717 -0.055927366 0.06454421 -0.2200911 -0.17379157
0.046270154 -0.058240093 0.4175261 0.22115193 -0.31603542 -0.114484824 0.053821564 -0.06968556
-0.15852754 0.1528695 -0.01259705 0.13656761 0.10056106 0.0571666 -0.78872037 0.06709261
0.024654215 0.2748839 -0.101834744 -0.41614133 -0.14593957 0.42453408 0.0396438 -0.32141235
0.16294786 0.04436215 -0.37817255 -0.21781193 0.11054178 0.008550692 -0.1353645 0.10470766
-0.08694967 -0.3538926 0.04054442 0.30162853 -0.24128698 0.05688043 0.021722855 0.15356833
-0.3096273 -0.16680653 -0.6520191 -0.24725999 -0.011677746 0.072453745 -0.04589611 -0.12937964
-0.29529056 0.005057501 0.28591707 -0.14313774 -0.32399318 -0.19339705 0.04026837 0.4184062
-0.3163616 -0.024736874 0.18214472 0.63095826 0.17580383 -0.046234176 -0.15256988 0.2390173
0.0633108 0.40379477 -0.07699488 -0.015099268 -0.09791958 -0.41992423 -0.15344024 0.059982862
-0.5914416 -0.07396868 0.18251725 -0.35601622 -0.27422422 0.1605244 0.25556374 -0.52582705
-0.26609394 -0.4348513 0.18547231 0.052609056 -0.054091323 0.66124004 0.2666358 -0.36126098
-0.182144 0.28968453 -0.2372851 -0.20475596 -0.62184554 -0.534331 0.34586892 -0.58147067
0.03624707 0.13417315 -0.60236377 0.14654584 0.034239713 -0.13955025 -0.021733446 0.31562343
-0.29911008 -0.31748727 -0.7123969 -0.18073952 -0.7155947 -0.25128126 -0.40482208 0.06676426
-0.7424615 -0.13127413 -0.09983038 0.07329437 -0.61711764 -0.15740016 0.1384891 -0.15205391
-0.21820463 -0.0013804417 -0.53514296 -0.1321618 -0.5272459 0.28905052 -0.14887394 -0.03937441
-0.43244067 0.29072326 -0.66644883 -0.6083946 0.14510638 -0.37156898 0.22806883 0.0038483257

fc2.bias f4 [64]
00000000: 7a9b 1dbd 9d38 cf3e 2701 773e 786c 09bd
00000010: 4d22 97be 3407 ee3e f4f7 443e 7721 a7be
00000020: 5d99 b6bc 886c 193e 2d97 d6bd d3d1 19be
00000030: d88b 22bc d538 3d3e 41cb 97be 91e4 b5bd
00000040: 1f68 a7bd 2ea1 90bd be2f c9bb 442a 4e3e
00000050: 6813 d6bd 9485 47be cb16 7d3e f063 b83d
00000060: 71b5 873d 755d 54bd 1645 f1bd 624e 83be
00000070: 9b3b 77be c300 3a3f 11c8 f43e bf63 e9bd
00000080: f028 eb3d 3777 a1bd 719f dd3e e315 d0be
00000090: f19b 97be 9687 2c3f 5ce0 2c3f 2ae4 6c3d
000000a0: 02bd ca3e 1c21 583e 3da1 90be a1cb 013f
000000b0: 3725 353e 3aa1 9ebd 15af d6bd e52a 73bd
000000c0: 3e34 f83e fecc e83a 84fe d0bd 693a b23e
000000d0: 65f2 ce3e df7d bc3c a8f3 13be 895c 5bbd
000000e0: d6cf 04be 59d6 683e 762a a23d 8b7e 8c3e
000000f0: f79d b6bd c625 0ebe 2089 5a3e 1150 b43d
-0.038478352 0.4047288 0.24121533 -0.03355071 -0.29518357 0.4648987 0.19235212 -0.3264272
-0.022289926 0.14982808 -0.10478053 -0.15021448 -0.009921037 0.18478711 -0.29647258 -0.08881486
-0.081741564 -0.070619926 -0.0061397245 0.2013331 -0.1045292 -0.1948455 0.24715726 0.090034366
0.06626404 -0.05184694 -0.11780755 -0.2564574 -0.24143831 0.7265741 0.4780889 -0.11395978
0.114824176 -0.078840666 0.43285707 -0.40641698 -0.2961116 0.6739439 0.67529845 0.05783478
0.39597327 0.2110638 -0.28248015 0.5070134 0.17689978 -0.07745595 -0.10482613 -0.05936708
0.48477358 0.0017761288 -0.10204795 0.34810188 0.40419307 0.023009239 -0.14448416 -0.053555045
-0.12969908 0.22738017 0.07918255 0.27440295 -0.08916848 -0.13881597 0.21341372 0.08804334

fc3.weight f4 [4, 64]
00000000: 4023 27bf 54cf 613d e178 b73e 7d8a 14be
00000010: eb3e 23bf eba2 6e3e 3f09 70bf 658a 9e3c
00000020: 0feb ad3e b071 acbe 3c3c 153f 1746 2ebd
00000030: e9da acbe f1c5 4a3e a31c fd3e 8c14 b53e
00000040: f643 33bf 0385 7bbf 330a b4be 016c 383e
00000050: 36c6 c03e b522 013f be47 6d3e d178 0b3f
00000060: 5af7 3d3f 957a 89be 5a21 023f a168 3a3c
00000070: 895c 81bf f60b 643e 6270 333e 908c 1dbe
00000080: 985b b53d 1deb e5be dd0d 833e a0bf 2fbf
00000090: 379e 4fbf 1583 423e aa0d f33d dd33 09bf
000000a0: 8ea9 2b3e 0e8e 643e d81d b8be 8e07 153e
000000b0: f628 583e 5286 123f aa76 f2be 578b 4a3b
000000c0: db45 cf3d ff86 053f e09d 273f f082 983e
000000d0: ac84 283e 2612 c33e fe0d c0be 6f11 46bf
000000e0: 027a 2dbf e800 f93d f8f2 3dbe 2aa1 9abd
000000f0: 7c79 9f3d c845 8ebf abd4 bd3e 5ba7 4b3e
00000100: 63f1 c53e 7f14 903d 87fa c93e 70ea e9be
00000110: cfe1 823e f39b 493e ebbb f9bc 27bd 3dbe
00000120: 2b57 b23e 06a7 953e 7f0c 4c3f e809 903d
00000130: b633 283e 1a9a cd3d b615 1c3f aef5 2d3f
00000140: 3447 f6bd cfd5 2d3e af39 d5bd 04d8 113e
00000150: cadb de3e 5cf2 253f dfce 603e 838d cd3e
00000160: de67 243f ad2d 37bd fd6c 003f 691f 073f
00000170: b135 21bf eff4 6a3e 6c5b 833e 03a5 b13c
00000180: 90ef 283d e4cf 6cbe f81b a23e 7de2 0c3f
00000190: ec77 0ebe 0891 97bc 5725 633e 7a6b 1cbd
000001a0: e546 6d3e d8f3 edbe 2930 f9be c2e2 2e3e
000001b0: fa47 393e 3d42 03be 707e 423d c4ca e93c
000001c0: fbfb 023e dcec 27bf 9318 043f 0edc 893e
000001d0: cac1 2c3e 8e18 403f ba8a 053e bf20 9fbf
000001e0: 83c5 093f 8db1 283e e508 91be 39af f73e
000001f0: 52ad d53e 9d96 1f3f 3548 3c3e 288b 403e
00000200: 56ef 343f 6d93 cbbd 359b 833d 836b 1ebf
00000210: da78 77bf 45c6 da38 af73 1f3f 33f8 f7be
00000220: 4468 313f d87c 7bbe fc81 c83e a86c 983c
00000230: d4ca 183f dbcb 883e bffc f9bd 8d3e 35bf
00000240: 1ccc 48bf 599c 0f3f d501 7b3e 64e8 033e
00000250: 47db 003f a259 28bf f9e8 843e a5e5 2fbf
00000260: b837 103f 7be7 cabd ebeb 263e 5758 e2be
00000270: b5ea d53e 7b6b 223e 9caf b83d 0386 443f
00000280: 8ad8 363e c0e1 2c3f 156b b23e e992 2e3f
00000290: c608 0fbf 6486 753e 3cb9 663e 0d33 2c3f
000002a0: 841b e33d a901 45bf 68e9 393f 34a0 973e
000002b0: fb87 953e 212f 1fbf bee0 f93e 800c 3abd
000002c0: 7eaf 463e 85aa 473e 342d 9a3f 7351 923e
000002d0: 6f28 383e d2eb d83c e0db 233f 25bf 55bf
000002e0: 0c0e c93e c2a6 603e 9a72 293e 1805 143c
000002f0: 7713 1dbf 4f5c 5abf 5b71 a73e 99c0 203d
00000300: 030b 4c3f f0f4 6f3e 1017 1d3e f54a 07bf
00000310: 71a5 11be d3b4 833e c6d5 f63e f046 21bf
00000320: 3d0c 8d3e f99e 963e bc73 17bd 867c 5bbd
00000330: eeda 47bf ae48 9f3e debb eabe 56ce 103f
00000340: 0962 3fbf 9240 433e 88d0 943e 2fb8 543e
00000350: 352c 44bf de33 013f adc2 0ebf e86f f53e
00000360: e9b0 1a3f 6e17 8a3f cf58 403f c674 ca3e
00000370: 05ab 523e 7072 d53d 1bfa 3c3d c93a b1be
00000380: d528 653e 78c0 8ebf 0361 f33d c0cf 35bf
00000390: db21 6cbe 56d3 3c3e 4784 653e 110c dd3e
000003a0: 7b05 633e 707e 27bf 5f57 d2be c4b6 7c3e
000003b0: 7d5a 373e d1e2 4ebf ebfa 093f 8d8f b33d
000003c0: 61b5 703e 1606 cdbe acce 153f 4605 443e
000003d0: 6d53 06bb d03e f13e a3ed dabe 5451 183f
000003e0: 91ee 3fbc bbea 273e d2c7 563f 6dc1 4c3f
000003f0: 8f81 02bf 2620 463c 5fa4 e73d 4935 903e
-0.6528816 0.055129364 0.3583441 -0.14505954 -0.6376788 0.23304336 -0.9376411 0.019353101
0.33968398 -0.33680487 0.58295035 -0.04254731 -0.33760765 0.19802071 0.4943591 0.3536724
-0.70025575 -0.98249835 -0.3516403 0.1800995 0.37651223 0.50443584 0.23171899 0.54481226
0.74205554 -0.26851335 0.5083214 0.011377485 -1.0106364 0.22270188 0.1752334 -0.15385652
0.08855361 -0.4490594 0.25596514 -0.6865177 -0.8110079 0.18995316 0.118678406 -0.5359476
0.16763899 0.22319815 -0.3596027 0.14553663 0.21109375 0.57236207 -0.47356158 0.0030905807
0.10120746 0.5215911 0.65475273 0.29787397 0.1645686 0.38099784 -0.37510675 -0.7737035
-0.67764294 0.12158376 -0.18549716 -0.07550271 0.07786843 -1.1115046 0.37076315 0.1988806
0.38660726 0.07035159 0.3944895 -0.45686674 0.25562903 0.19688396 -0.030485114 -0.18529187
0.3483213 0.2922899 0.7970657 0.070331395 0.16425976 0.10039158 0.6097063 0.67953
-0.120253 0.16976093 -0.10411393 0.1424256 0.4352706 0.64822936 0.21953915 0.40147027
0.6422099 -0.044721294 0.501663 0.52782303 -0.6297255 0.22944997 0.25655687 0.021685129
0.04124409 -0.23126179 0.31661963 0.55033094 -0.13912934 -0.018501773 0.22182213 -0.038188435
0.23171575 -0.464751 -0.48669556 0.17078689 0.18093863 -0.12818237 0.04748386 0.028539069
0.12791435 -0.65595794 0.516 0.269257 0.168708 0.7503747 0.13041201 -1.2431868
0.53817004 0.1647398 -0.28327098 0.48375872 0.41733795 0.6233919 0.1838692 0.18803084
0.706777 -0.099402286 0.06426088 -0.618828 -0.9666878 0.000104319806 0.62285894 -0.48431548
0.6929972 -0.24559343 0.3916167 0.018606499 0.5968449 0.2671803 -0.122064106 -0.7079857
-0.78436446 0.5609794 0.24512418 0.12881619 0.5033459 -0.6576177 0.25958994 -0.68709785
0.5633502 -0.09907433 0.16300933 -0.44208023 0.4178063 0.15861313 0.0901787 0.76766986
0.1785604 0.6753197 0.34847322 0.6819292 -0.5587276 0.23977047 0.22531599 0.672654
0.110892326 -0.7695566 0.72621775 0.29614413 0.29205307 -0.6218129 0.48804277 -0.045422077
0.19402882 0.19498642 1.2045045 0.28577766 0.17984174 0.026479635 0.6400738 -0.8349479
0.3926853 0.21938613 0.16547623 0.009034418 -0.61357826 -0.852971 0.3270367 0.039246175
0.797043 0.2343328 0.15340829 -0.5284875 -0.14223267 0.25723895 0.4820997 -0.6299887
0.275484 0.29418162 -0.036975607 -0.05358555 -0.78068435 0.31110138 -0.45846456 0.56564844
-0.74758965 0.190676 0.29065347 0.20773385 -0.76629955 0.5046977 -0.557658 0.4793694
0.60426193 1.07884 0.7513551 0.39542216 0.20573051 0.10422218 0.046136957 -0.34615162
0.22378857 -1.1152487 0.11883738 -0.71020126 -0.2305979 0.18439993 0.22413741 0.43173268
0.2217006 -0.65427303 -0.41082284 0.24679095 0.17905612 -0.80814844 0.53898495 0.087676145
0.2350669 -0.40043706 0.5851848 0.19142637 -0.0020496503 0.47118235 -0.42759427 0.59499097
-0.0117145935 0.16398136 0.8389865 0.79982644 -0.5097894 0.012092626 0.11310648 0.28165653

fc3.bias f4 [4]
00000000: 9569 163f d1ef f83e 7311 ec3e d41d fc3e
0.58754855 0.48620465 0.46107063 0.49241507
