ddqn_online_model.pth (torch, 29671 bytes, 6 tensors)

fc1.weight f4 [64, 37]
0.17865995 0.1234499 -0.4966827 -0.1060212 0.21949929 -0.533866 -0.45697477 0.4899648
0.27136832 -0.0491785 -0.47513238 0.48923665 0.36985546 -0.5568992 -0.4864006 0.1467034
0.05246174 -0.29445127 0.11301497 -0.72519755 -0.17352638 -0.5041588 -0.15838546 0.13250531
0.6574583 -0.016492821 -0.46473044 0.77610296 -0.3949906 0.66221213 0.44075802 -1.3742819
-0.3507462 0.03021724 -1.3949606 -0.1059281 0.034108926 -0.8410981 -0.21031015 0.46679458
-0.6779076 -0.48064283 -0.6122279 -0.3941537 0.54018307 0.12317859 -1.9082233 -1.6019897
0.31597432 -0.4499848 0.11542824 0.7568483 -0.9972781 0.16341731 0.15211003 -0.485121
0.31529093 0.103837326 -1.0015453 0.31218433 -0.67208296 -0.22518025 -0.44126943 -0.75317985
0.18641204 -0.625755 -1.0722928 0.24245338 -0.237728 -0.58098847 0.023570986 -0.32621303
0.11889494 0.017607722 -1.0297314 -0.12236074 -0.6017397 -1.5014585 -0.96664166 -1.3147292
0.34230384 -0.5983622 -0.47029713 0.2292821 -0.9581291 -1.2805953 0.058746774 -0.18220797
-1.0157367 -0.027009891 -0.1578877 -0.774177 -0.018588012 -0.04589008 -0.18115813 -0.6375371
0.32422057 -1.2323523 1.0352566 -1.1931709 -0.17897865 -0.60366935 0.6125446 -1.0295354
-0.47820127 -0.3614697 -0.26118845 0.49643645 1.0656646 0.085338555 0.023262717 0.03962657
0.39070934 -0.21554351 -0.08210413 -0.2290505 -1.3338076 0.98675996 0.59907776 -0.39898062
-0.021362469 0.021628987 0.34593073 -0.3687639 -0.3287055 -0.581607 0.3948099 0.040199544
0.018793678 -0.71897155 -0.45170256 0.24221672 -0.17182253 0.46006134 -0.6842846 -0.5580207
0.22940804 0.14574328 -0.05162621 -0.08937043 -0.10907928 0.4041481 0.050854966 -0.052794065
0.10241803 -0.09623051 0.083338864 -0.02287172 -0.0343487 -0.7952652 -0.2782636 0.10420289
-0.7195593 -0.40433222 0.3530669 0.28876555 -0.9080146 -0.29143554 -0.6933017 -0.5675113
0.04166422 -0.06049258 -0.20640871 0.10382197 -0.15535846 -0.21955751 -0.37258613 -2.6246576
0.19841464 -0.11841041 -0.16214842 -0.5736418 0.22035097 -0.049652208 -0.31794146 -0.4536976
0.009577016 -0.4719622 0.041037668 -0.40827698 -0.3392458 -0.17590761 -1.2753353 0.19245167
-0.015397996 -0.594169 -0.16010644 -0.18773033 0.4563182 -1.7820679 -0.12440148 0.38605207
-0.0894844 -1.7079557 -0.34937847 0.35424772 -0.9620966 -0.4604479 -0.25759402 -0.018527623
-0.7490222 0.33710375 0.14619009 -0.28515896 -1.1380082 0.47145984 -1.2788328 -0.40240455
-0.3544086 -0.106240116 -0.51694703 0.14627875 0.14537367 -1.6275102 -2.1929786 -1.4573835
-0.2483903 -0.06345394 -0.114310384 0.37578318 0.22047788 -0.055286385 -0.30176678 -0.009411312
-0.8765902 -0.63251424 -0.8120765 -0.9824832 -0.029327625 0.12457029 -0.69558465 -0.12801316
-0.51108414 -0.4868075 0.17899443 -0.8575926 -2.3715172 -0.2517362 -0.08588883 -0.66362584
-0.2745206 -0.45508292 0.26902404 -0.68872726 -0.32849523 -1.344735 -2.5549867 -0.23954262
-1.0987726 -0.22706713 -0.9698703 -1.5588933 -0.7132247 -1.0390021 0.14773954 -0.7072054
00000000: a2f2 363e 4dd3 fc3d 324d febe a521 d9bd
00000010: 6cc4 603e 71ab 08bf 99f8 e9be abdc fa3e
00000020: caf0 8a3e 656f 49bd 8d44 f3be 3a7d fa3e
00000030: b25d bd3e f290 0ebf 8009 f9be 6b39 163e
00000040: 1fe2 563d 51c2 96be 6574 e73d 8ca6 39bf
00000050: e6b0 31be 8d10 01bf cc2f 22be 79af 073e
00000060: 304f 283f f41b 87bc 26f1 edbe afae 463f
00000070: 353c cabe bc86 293f 09ab e13e 78e8 afbf
00000080: 0295 b3be 258a f73c 128e b2bf d5f0 d8bd
00000090: cdb5 0b3d 3552 57bf 8b5b 57be b3ff ee3e
000000a0: 5a8b 2dbf d116 f6be f8ba 1cbf 84ce c9be
000000b0: 7049 0a3f 0e45 fc3d a940 f4bf 000e cdbf
000000c0: 63c7 a13e 6864 e6be a465 ec3d cfc0 413f
000000d0: 9e4d 7fbf de56 273e bbc2 1b3e c861 f8be
000000e0: d06d a13e aaa8 d43d a332 80bf a0d6 9f3e
000000f0: a10d 2cbf a795 66be 11ee e1be 65d0 40bf
00000100: cce2 3e3e 7b31 20bf e440 89bf b345 783e
00000110: f86e 73be a9bb 14bf f117 c13c 6505 a7be
00000120: 317f f33d 123e 903c 3dce 83bf 4598 fabd
00000130: 9d0b 1abf cb2f c0bf d475 77bf 0c49 a8bf
00000140: 7342 af3e 442e 19bf c9ca f0be edc8 6a3e
00000150: f347 75bf 8cea a3bf 75a0 703d ba94 3abe
00000160: a903 82bf d943 ddbc 50ad 21be 7730 46bf
00000170: e345 98bc 3df7 3bbd 8481 39be a235 23bf
00000180: 3d00 a63e b8bd 9dbf 4a83 843f d3b9 98bf
00000190: 2e46 37be 138a 1abf b9cf 1c3f d1c7 83bf
000001a0: ccd6 f4be 8e12 b9be 7eba 85be eb2c fe3e
000001b0: b367 883f fbc5 ae3d 7491 be3c 784f 223d
000001c0: 0e0b c83e 70b7 5cbe 3626 a8bd 378c 6abe
000001d0: 35ba aabf 4d9c 7c3f 295d 193f 3047 ccbe
000001e0: 5800 afbc 462f b13c d51d b13e 9fce bcbe
000001f0: 164c a8be 32e4 14bf 8624 ca3e 47a8 243d
00000200: 33f5 993c 850e 38bf 8f45 e7be a907 783e
00000210: 3ff2 2fbe 298d eb3e 472d 2fbf 72da 0ebf
00000220: f1e9 6a3e ba3d 153e 0176 53bd d807 b7bd
00000230: f564 dfbd 80ec ce3e 4c4d 503d 973e 58bd
00000240: 8bc0 d13d 8014 c5bd 91ad aa3d 795d bbbc
00000250: 39b1 0cbd 8096 4bbf 9178 8ebe 5368 d53d
00000260: 0a35 38bf a204 cfbe 2fc5 b43e 14d9 933e
00000270: a573 68bf 0a37 95be 387c 31bf 6c48 11bf
00000280: 1aa8 2a3d 11c7 77bd ce5c 53be 9da0 d43d
00000290: 4a16 1fbe afd3 60be 9cc3 bebe 64fa 27c0
000002a0: 352d 4b3e 2881 f2bd 3c0a 26be 30da 12bf
000002b0: afa3 613e 1d60 4bbd 39c9 a2be 0d4b e8be
000002c0: ebe8 1c3c 08a5 f1be 1d17 283d ae09 d1be
000002d0: a0b1 adbe 2021 34be 303e a3bf 0d12 453e
000002e0: e047 7cbc 761b 18bf f1f2 23be 613c 40be
000002f0: 8aa2 e93e cd1a e4bf 34c6 febd 9ea8 c53e
00000300: 9943 b7bd 4b9e dabf bce1 b2be f55f b53e
00000310: f64b 76bf d4bf ebbe 5de3 83be 3ec7 97bc
00000320: ebbf 3fbf dd98 ac3e dbb2 153e 5b00 92be
00000330: 41aa 91bf 2f63 f13e cbb0 a3bf f807 cebe
00000340: 0b75 b5be 6b94 d9bd a456 04bf 19ca 153e
00000350: d6dc 143e 4152 d0bf c359 0cc0 8b8b babf
00000360: 075a 7ebe 24f4 81bd 901b eabd a766 c03e
00000370: f4c4 613e fa73 62bd 2d81 9abe e731 1abc
00000380: 3768 60bf 74ec 21bf 3fe4 4fbf 0584 7bbf
00000390: 7d40 f0bc b51e ff3d d611 32bf e215 03be
000003a0: 69d6 02bf d53e f9be 514a 373e 308b 5bbf
000003b0: f0c6 17c0 91e3 80be 7ce6 afbd 62e3 29bf
000003c0: f78d 8cbe a100 e9be 85bd 893e 6e50 30bf
000003d0: 8730 a8be 4720 acbf e784 23c0 a94a 75be
000003e0: 95a4 8cbf 4984 68be 6c49 78bf d189 c7bf
000003f0: e595 36bf 05fe 84bf 0949 173e 6a0b 35bf

fc1.bias f4 [64]
0.027226487 -0.25701115 -0.3037019 -0.12358374 -0.49141312 -0.25913218 -0.25783157 0.014262818
-0.25140923 0.32420644 -0.014983341 -0.29849425 0.12692368 -0.020141143 0.14881337 -0.29082957
-0.08216193 0.1345866 -0.28101122 -0.3407972 -0.14284922 0.096560076 -0.18947083 -0.38379753
-0.20547886 0.109012164 -0.53359824 -0.12223395 0.005440316 -0.029323362 -0.121210895 -0.11195984
0.093335226 -0.1467012 -0.053193763 0.15041947 -0.29554412 -0.50886166 -0.025536526 -0.5696399
-0.29322398 0.12661491 0.08173108 -0.0969008 -0.0054573 -0.24256554 -0.02259056 -0.11007026
0.031768806 -0.05609279 -0.1388683 0.005075886 0.12649956 0.13716522 0.07870795 -0.17631015
-0.26846305 -0.19282165 0.0376942 -0.02063198 -0.17038204 0.0017272821 -0.26970446 -0.25508967
00000000: 150a df3c f796 83be d17e 9bbe 7919 fdbd
00000010: 809a fbbe f9ac 84be 8002 84be 98ae 693c
00000020: b6b8 80be 63fe a53e b07c 75bc 3dd4 98be
00000030: 48f8 013e 0aff a4bc 8862 183e 9de7 94be
00000040: 8444 a8bd 12d1 093e b4e0 8fbe f87c aebe
00000050: 1147 12be 4ac1 c53d a404 42be 1c81 c4be
00000060: 0d69 52be c541 df3d e599 08bf cb55 fabd
00000070: ae44 b23b 8c37 f0bc 6b3d f8bd 334b e5bd
00000080: 8a26 bf3d d738 16be b4e1 59bd 9007 1a3e
00000090: 8f51 97be c244 02bf fa31 d1bc ecd3 11bf
000000a0: 7421 96be 57a7 013e a062 a73d ed73 c6bd
000000b0: 27d3 b2bb 1a63 78be d70f b9bc 846c e1bd
000000c0: 0220 023d 8ec1 65bd 7e33 0ebe 9e53 a63b
000000d0: 1a89 013e 0a75 0c3e a231 a13d a68a 34be
000000e0: fd73 89be 0a73 45be 3c65 1a3d 6604 a9bc
000000f0: a178 2ebe f865 e23a b416 8abe 1d9b 82be

fc2.weight f4 [64, 64]
0.1323986 -0.26734775 -0.23346953 -0.38183373 -0.34027478 -0.44904515 -0.15085286 -0.08611806
-0.6447774 -0.2526679 0.2264904 -0.37166354 -0.39323595 -0.16281423 -0.5689214 -0.80411875
-0.17533597 0.15019009 0.25005555 -0.33356753 -1.173582 -0.22904532 -0.25146136 -0.20365363
0.17772715 0.043158602 -0.3979892 0.20888828 -0.17157067 -0.59732366 0.23436932 0.009010731
-0.2622563 0.16111037 -0.058980275 -0.8974434 0.27043837 -0.18946086 -0.30544323 0.23885173
0.09139155 -0.017684175 0.15654303 0.27221724 -0.16478568 -0.01743922 0.09037845 0.09187814
-0.12661111 -0.25084704 -0.0922653 -0.5594828 -0.4704864 -0.10851336 -0.04600828 -1.053796
-0.49793386 -0.44774252 -0.8976739 -0.6682733 -0.2846063 -0.5519492 0.2495357 0.05919086
-0.026807016 -0.87910134 -0.23568504 -0.12035232 -0.47178668 -0.8442816 -0.27517688 0.42169583
-0.022309164 -0.2870116 -0.2849046 0.26845074 0.06308639 -0.09995524 0.02561584 -0.9002202
-0.085422635 -0.3815879 0.22091067 0.5995014 0.1090141 0.09133762 0.008983419 -0.49967092
-0.08572781 -0.015982773 0.090341255 0.1338208 -0.008487471 0.21393676 0.2592755 0.06633285
0.07739633 -0.67627406 0.03403811 -0.026254324 -0.21645738 0.36311662 0.68261534 0.72267365
0.4922439 0.084524415 -0.050438434 0.04315861 -0.12734981 0.19274558 0.08245231 0.46905094
0.59522444 0.09364857 0.10560208 -0.13828483 0.062098496 -0.318206 0.037588935 -0.63703483
-0.08577882 -0.19493467 0.3318668 -0.10439868 -0.7543737 -0.15522265 -0.10353857 -0.34100872
-0.07329297 0.0741507 -0.27286386 -0.45752218 0.51459634 -0.121627174 -0.7743117 0.6921745
-0.09699282 0.3141745 0.121715166 -0.06643721 -0.18741101 0.40582862 0.0047441325 -0.19604383
0.14208485 -0.097797886 -0.23446468 -0.02585832 -0.06663793 0.04251673 0.56770027 -0.005412128
0.47869188 -0.20678963 -0.03363245 -0.06346289 0.024869692 0.02839251 0.07218719 -0.04999763
-0.036834706 0.035668146 -2.3704765 -0.1741867 0.37076902 0.054767888 0.2146757 -0.34643072
0.44978666 -1.3847312 0.073320255 -0.013613083 -0.012912709 0.057030212 -0.10458972 0.5575517
-0.9071755 0.015569884 -0.33017534 0.61817926 -0.15054668 -0.43618518 -0.05749092 -0.11772697
0.20533021 0.12774186 0.046646018 0.05244101 -0.029438218 -0.43911922 0.24606629 0.087288566
-0.8016572 -0.07396258 0.26898536 -0.017416298 -0.26713246 0.32087228 0.25556374 -0.49908903
-0.40013343 -1.1405752 0.15630203 0.18861017 -0.09497472 0.7876755 -0.08047333 -0.63408816
-0.6730491 0.44531602 -0.2372851 -0.18913522 -1.3591992 -0.09549416 0.36204818 -0.8108762
-0.2689628 0.20088542 -0.5073247 -0.5151303 0.53807646 -0.4452229 -0.15731628 0.3939561
-0.46797618 -0.37277526 -0.7296713 -0.055134278 -0.4012009 -0.25106347 -0.48550424 0.06676426
-0.64108235 -0.29312405 0.14637433 -0.028288307 0.026546447 -0.28502768 -0.22269002 -0.2793228
-0.35478085 -0.07707548 -0.3602888 -0.25920358 -0.39159623 -0.07974861 -0.12944524 0.18178208
-0.72602165 0.19020298 -0.75893646 -0.6201351 0.14510638 -0.88555247 0.05466586 -0.316443
00000000: 8093 073e cee1 88be a312 6fbe b67f c3be
00000010: 7f38 aebe 3fe9 e5be 2c79 1abe aa5e b0bd
00000020: 2210 25bf b05d 81be 19ed 673e af4a bebe
00000030: 3956 c9be c6b8 26be d5a4 11bf bada 4dbf
00000040: 468b 33be 6ecb 193e 4807 803e 5dc9 aabe
00000050: ef37 96bf db8a 6abe 8bbf 80be 948a 50be
00000060: 1bfe 353e 13c7 303d 3ec5 cbbe cfe6 553e
00000070: 39b0 2fbe 34ea 18bf 83fe 6f3e bfa1 133c
00000080: 7546 86be 1efa 243e 4d95 71bd dabe 65bf
00000090: e676 8a3e 0702 42be 0e63 9cbe 8c95 743e
000000a0: 7e2b bb3d 67de 90bc d14c 203e 0f60 8b3e
000000b0: 94bd 28be b2dc 8ebc 5618 b93d 9b2a bc3d
000000c0: 58a6 01be 066f 80be 97f5 bcbd 443a 0fbf
000000d0: 98e3 f0be 413c debd 2e73 3cbd cae2 86bf
000000e0: 30f1 febe 823e e5be f5cd 65bf f613 2bbf
000000f0: ebb7 91be 8b4c 0dbf 4986 7f3e 1d72 723d
00000100: 639a dbbc c90c 61bf 6b57 71be 477b f6bd
00000110: 068e f1be d722 58bf fce3 8cbe 84e8 d73e
00000120: b5c1 b6bc 2ff3 92be 04df 91be 6072 893e
00000130: 7033 813d 55b5 ccbd 4fd8 d13c d574 66bf
00000140: 10f2 aebd 7d5f c3be 6836 623e ec78 193f
00000150: c942 df3d 380f bb3d 312f 133c ded4 ffbe
00000160: 1092 afbd 4eee 82bc d604 b93d 5208 093e
00000170: 090f 0bbc 3d12 5b3e c2bf 843e 84d9 873d
00000180: f881 9e3d 4c20 2dbf 8c6b 0b3d 4f13 d7bc
00000190: 01a7 5dbe 6cea b93e e1bf 2e3f 2401 393f
000001a0: 6407 fc3e 231b ad3d 8898 4ebd 15c7 303d
000001b0: fd67 02be 195f 453e c2dc a83d 7227 f03e
000001c0: a160 183f d2ca bf3d e745 d83d 8a9a 0dbe
000001d0: fe5a 7e3d e6eb a2be dbf6 193d b714 23bf
000001e0: ceac afbd f49c 47be 72ea a93e face d5bd
000001f0: a31e 41bf b0f2 1ebe 080c d4bd b298 aebe
00000200: a01a 96bd 52dc 973d d0b4 8bbe 5940 eabe
00000210: 96bc 033f ab17 f9bd 4b39 46bf 5932 313f
00000220: 2ca4 c6bd 7bdb a03e cd45 f93d 3b10 88bd
00000230: ace8 3fbe c5c8 cf3e ab74 9b3b b7bf 48be
00000240: b17e 113e 424a c8bd 8217 70be d4d4 d3bc
00000250: 7879 88bd 0626 2e3d ce54 113f 3858 b1bb
00000260: 1a17 f53e a9c0 53be 2ec2 09bd d5f8 81bd
00000270: 86bb cb3c 6997 e83c e1d6 933d 51ca 4cbd
00000280: fddf 16bd c318 123d e3b5 17c0 005e 32be
00000290: 70d5 bd3e 4b54 603d f2d3 5b3e 5e5f b1be
000002a0: 704a e63e df3e b1bf ee28 963d 6909 5fbc
000002b0: d48f 53bc 8398 693d 2333 d6bd b5bb 0e3f
000002c0: a73c 68bf d418 7f3c be0c a9be ff40 1e3f
000002d0: e928 1abe aa53 dfbe 997b 6bbd d61a f1bd
000002e0: 1542 523e c3ce 023e e50f 3f3d 62cc 563d
000002f0: 6b28 f1bc 3cd4 e0be cdf8 7b3e 59c4 b23d
00000300: 6839 4dbf b179 97bd 73b8 893e a0ac 8ebc
00000310: 96c5 88be 5f49 a43e 40d9 823e 9988 ffbe
00000320: 4ade ccbe 5efe 91bf a40d 203e 0623 413e
00000330: 1b82 c2bd 1aa5 493f 34cf a4bd 9a53 22bf
00000340: f24c 2cbf 7600 e43e defa 72be aaac 41be
00000350: 3dfa adbf 7192 c3bd 615e b93e 9595 4fbf
00000360: 7eb5 89be e8b4 4d3e 08e0 01bf 94df 03bf
00000370: 61bf 093f 42f4 e3be 8517 21be 9db4 c93e
00000380: 939a efbe 66dc bebe bdcb 3abf 7bd4 61bd
00000390: 346a cdbe 648b 80be 0394 f8be b3bb 883d
000003a0: f91d 24bf 5b14 96be 27e3 153e e1bc e7bc
000003b0: ef77 d93c 26ef 91be da08 64be 6603 8fbe
000003c0: d6a5 b5be c0d9 9dbd c677 b8be 55b6 84be
000003d0: 4d7f c8be 3d53 a3bd 4b8d 04be 1525 3a3e
000003e0: 8edc 39bf 92c4 423e a949 42bf 2dc1 1ebf
000003f0: c496 143e 91b3 62bf 4fe9 5f3d d104 a2be

fc2.bias f4 [64]
-0.04285789 0.62009716 0.1715312 0.031720262 -0.41030312 0.4088157 0.023938663 -0.5542385
-0.046433065 -0.14502612 -0.1951223 -0.33889645 0.058196478 0.21608615 -0.38472906 -0.13401838
-0.43624416 -0.21127059 -0.29566768 0.31152424 -0.16801694 -0.28602713 -0.064697124 -0.122790776
-0.12664196 -0.20879441 -0.06985353 -0.37273255 -0.27759656 0.9310887 0.44465232 0.0023610839
0.012790071 -0.2841949 0.32335386 -0.65247506 -0.44894698 0.8870566 0.86726516 0.045293916
0.4368554 0.069991015 -0.3991687 0.33385393 0.16284235 -0.15133272 -0.1705629 -0.05936708
0.66276556 -0.09266801 0.0076196752 0.36781865 0.5733292 -0.183811 -0.34493303 -0.14472714
-0.2859343 0.3949488 -0.13634492 0.19699289 -0.10975588 -0.19210818 0.42223153 0.24147658
00000000: c18b 2fbd b0be 1e3f e0a5 2f3e 1bed 013d
00000010: 4013 d2be 4b50 d13e 041b c43c 93e2 0dbf
00000020: 9930 3ebd ba81 14be 24ce 47be d683 adbe
00000030: 6e5f 6e3d b045 5d3e 35fb c4be 1d3c 09be
00000040: 655b dfbe 5157 58be c161 97be 1b80 9f3e
00000050: a20c 2cbe 2672 92be ed7f 84bd bb79 fbbd
00000060: 6eae 01be 34ce 55be 5e0f 8fbd cdd6 bebe
00000070: 2321 8ebe d45b 6e3f 78a9 e33e 6abc 1a3b
00000080: 728d 513c fe81 91be a38e a53e 9b08 27bf
00000090: 61dc e5be 2416 633f 1705 5e3f 1d86 393d
000000a0: 83ab df3e 7357 8f3d d75f ccbe e7ee aa3e
000000b0: 25c0 263e f7f6 1abe 0aa8 2ebe e52a 73bd
000000c0: 01ab 293f bac8 bdbd 78ae f93b ba52 bc3e
000000d0: b4c5 123f f338 3cbe 109b b0be 5a33 14be
000000e0: fb65 92be bb36 ca3e 019e 0bbe 81b8 493e
000000f0: b1c7 e0bd 02b8 44be bb2e d83e a345 773e

fc3.weight f4 [4, 64]
-0.91492975 -0.050813727 0.20084848 -0.4817135 -0.59646136 0.3818918 0.22204618 0.43412188
0.49682546 0.12718526 0.5388915 0.5649449 -0.57857925 0.32583606 0.43551725 0.47276863
-0.9648153 -0.5225047 -0.53243077 0.31370366 0.36063093 0.45889768 0.88138765 0.30042112
0.8262234 -0.52130306 0.6393178 0.25096458 -1.0106364 0.2545433 0.15147023 -0.45903802
0.20781535 0.77479875 0.30608204 -0.76779133 -1.1033777 0.2515251 0.12274027 -0.7957006
0.12753107 -0.45230913 -0.27622277 0.845733 0.1425105 0.4860494 -0.47356158 0.0030905807
0.24324836 0.45692766 1.0573832 0.49306214 0.25471017 0.5824474 -0.4290473 -0.6953169
-1.2060813 0.18591638 -0.20192595 0.80838764 0.4244006 -0.9839944 0.19265288 0.19773355
0.40704766 -0.04889487 0.12291747 -0.04165416 0.17987666 0.5325856 0.3246701 0.14330144
0.2645393 0.56273615 0.7420302 -0.62322676 0.20009577 0.17953013 0.6097063 0.83459795
-0.088216215 -0.08392292 -0.28657433 0.38495794 0.39327186 0.58010983 0.4410898 0.9171909
0.84141403 -0.23349258 0.76063544 0.592286 -0.6297255 0.22980492 0.14539687 -0.49816594
0.3070371 -0.6876814 -0.2672093 0.7196027 -0.3703686 0.06123477 0.30247092 -0.34581462
0.27230784 -0.92658865 -0.39807904 0.5565837 0.14373073 -0.12818237 0.04748386 0.028539069
0.23990428 -0.65595794 0.42297715 0.4285852 0.17801955 0.864123 0.1383042 -0.5928774
0.09050075 0.20411022 0.6099423 0.9125523 0.40145835 0.7337026 0.20475924 0.19494088
0.9488468 -0.37046072 -0.16642362 -0.6701205 -0.90593165 0.6310959 0.7466745 -0.48050913
0.5672012 0.22567491 0.3625352 0.77957636 -0.33053318 0.39325055 -0.10629225 -1.0944086
-0.6598118 1.008609 0.62490404 0.19111732 0.5033459 -0.6808697 0.40353233 -0.4126975
0.878767 -0.026516952 0.497397 -0.16075407 0.4022317 0.23486064 0.0025399101 0.3799406
0.38392904 0.59998643 0.0016584921 0.5445157 -0.5896929 0.2996661 0.27284116 -0.71053207
0.27929828 -0.34404668 0.8129367 0.8383539 0.33291182 -0.61197627 0.46753147 -0.045422077
0.08423398 0.17949905 0.56563854 0.24005163 0.13734318 0.13163127 0.46881592 -0.6136785
-0.32729542 0.21668461 0.75090504 1.1586584 -0.68851596 -0.781222 0.23364654 0.19011927
0.89957887 0.12566966 -0.006230844 -1.2106929 -0.23888966 0.46737653 0.694636 -0.6017476
0.25518027 0.5572156 -0.21276176 -1.0244809 -1.2142917 0.41544545 -0.4426041 0.27119222
-0.553667 0.90774125 0.53318703 0.21607317 -0.76629955 0.46578062 -0.57755333 0.7479119
0.7780384 0.7397426 0.769622 0.5194704 0.19551872 0.16768952 -0.16668406 -0.5706499
0.3180914 -0.8426588 -0.8707037 -0.551475 -0.29193243 0.20074621 0.2929518 0.54854894
0.5025719 0.048225522 -0.52506816 0.5854607 0.21685609 -0.8351765 0.50742364 0.087676145
0.29448888 -0.40043706 1.1052498 0.5162697 -0.003261746 0.4331675 -0.42759427 1.1525874
-0.6966414 0.22119723 0.86814946 1.0204418 -0.5207196 0.012092626 0.06332514 0.16192785
00000000: d638 6abf 0e22 50bd 39ab 4d3e 27a3 f6be
00000010: b1b1 18bf 5287 c33e 1360 633e 3945 de3e
00000020: e85f fe3e da3c 023e cbf4 093f 3ba0 103f
00000030: c51d 14bf fcd3 a63e 1efc de3e bb0e f23e
00000040: 23fe 76bf dec2 05bf 624d 08bf c49d a03e
00000050: 9ea4 b83e a3f4 ea3e 9fa2 613f ccd0 993e
00000060: 6083 533f 1e74 05bf 55aa 233f 6e7e 803e
00000070: 895c 81bf 8053 823e 031b 1b3e 0807 ebbe
00000080: 8ccd 543e 3659 463f c9b6 9c3e f98d 44bf
00000090: 7b3b 8dbf e6c7 803e 405f fb3d 09b3 4bbf
000000a0: 8197 023e 1095 e7be 126d 8dbe f581 583f
000000b0: 46ee 113e 78db f83e aa76 f2be 578b 4a3b
000000c0: 1916 793e 6cf2 e93e 5558 873f a472 fc3e
000000d0: 5f69 823e 461b 153f 16ac dbbe 4a00 32bf
000000e0: df60 9abf dd60 3e3e adc5 4ebe 7ef2 4e3f
000000f0: 094b d93e 0fe7 7bbf cc46 453e aa7a 4a3e
00000100: 8d68 d03e fd45 48bd 28bc fb3d 8d9d 2abd
00000110: 9631 383e 8857 083f 293b a63e 9dbd 123e
00000120: b271 873e 7a0f 103f b1f5 3d3f ca8b 1fbf
00000130: e8e5 4c3e bfd6 373e b615 1c3f 36a8 553f
00000140: b4aa b4bd c8df abbd dfb9 92be 3519 c53e
00000150: ee5a c93e 1482 143f 86d6 e13e 06cd 6a3f
00000160: e966 573f ae18 6fbe 01b9 423f 0ea0 173f
00000170: b135 21bf fb51 6b3e ebe2 143e 9b0f ffbe
00000180: f733 9d3e e30b 30bf a8cf 88be e237 383f
00000190: f4a0 bdbe 4fd1 7a3d 78dd 9a3e 9d0e b1be
000001a0: ef6b 8b3e ea34 6dbf 04d1 cbbe 457c 0e3f
000001b0: 262e 133e 3d42 03be 707e 423d c4ca e93c
000001c0: 78a9 753e dcec 27bf 7690 d83e 856f db3e
000001d0: c24a 363e 2a37 5d3f 9e9f 0d3e d0c6 17bf
000001e0: 7558 b93d 4502 513e 2e25 1c3f 079d 693f
000001f0: f38b cd3e efd3 3b3f 68ac 513e 959e 473e
00000200: a0e7 723f 07ad bdbe f46a 2abe 048d 2bbf
00000210: 23eb 67bf 808f 213f 0f26 3f3f 4b05 f6be
00000220: 1934 113f 5317 673e 379e b93e 5192 473f
00000230: a53b a9be 2358 c93e c0af d9bd 9515 8cbf
00000240: 6de9 28bf 1a1a 813f b6f9 1f3f 42b4 433e
00000250: 47db 003f 7a4d 2ebf ca9b ce3e 164d d3be
00000260: e0f6 603f 143a d9bc d2aa fe3e b79c 24be
00000270: 50f1 cd3e 4f7f 703e 9f74 263b 9387 c23e
00000280: 5992 c43e b698 193f c361 d93a 6265 0b3f
00000290: 1df6 16bf d66d 993e d6b1 8b3e 6ee5 35bf
000002a0: 2f00 8f3e e326 b0be 9f1c 503f 5c9e 563f
000002b0: 6b73 aa3e 7aaa 1cbf 4960 ef3e 800c 3abd
000002c0: dd82 ac3d 99ce 373e b0cd 103f 18d0 753e
000002d0: b1a3 0c3e 59ca 063e a408 f03e 091a 1dbf
000002e0: 4493 a7be 92e2 5d3e 503b 403f eb4e 943f
000002f0: 9542 30bf 2afe 47bf 0a41 6f3e a0ae 423e
00000300: cd4a 663f 8caf 003e 1c2c ccbb fcf7 9abf
00000310: 7e9f 74be fa4b ef3e aad3 313f 210c 1abf
00000320: fda6 823e aea5 0e3f 38de 59be 3122 83bf
00000330: e96d 9bbf 44b5 d43e 019d e2be b5d9 8a3e
00000340: 1fbd 0dbf bb61 683f f27e 083f 4942 5d3e
00000350: 352c 44bf cc7a ee3e 89da 13bf 2777 3f3f
00000360: 862d 473f c55f 3d3f f305 453f 03fc 043f
00000370: 0f36 483e cdb6 2b3e 3aaf 2abe 1d16 12bf
00000380: e0dc a23e 7db8 57bf 70e6 5ebf 772d 0dbf
00000390: 2b78 95be 6a90 4d3e c7fd 953e b46d 0c3f
000003a0: 8da8 003f 2088 453d de6a 06bf c1e0 153f
000003b0: 860f 5e3e 21ce 55bf 84e6 013f 8d8f b33d
000003c0: 3fc7 963e 1606 cdbe d378 8d3f 402a 043f
000003d0: 04c3 55bb 21c8 dd3e a3ed dabe fc87 933f
000003e0: 1757 32bf 8781 623e 0b3f 5e3f d69d 823f
000003f0: e14d 05bf 2620 463c 9cb0 813d 6ad0 253e

fc3.bias f4 [4]
0.71812254 0.6826855 0.8219326 0.7308436
00000000: e1d6 373f 7ac4 2e3f 2d6a 523f 9118 3b3f
